…
I0603 04:24:33.441619   822 net.cpp:157] 
name: "Model4.256"
state {
  phase: TRAIN
  level: 0
  stage: ""
}
engine: "MKL2017"
layer {
  name: "DataColor256"
  type: "Data"
  top: "data"
  top: "label"
  include {
    phase: TRAIN
  }
  transform_param {
    mirror: false
    mean_file: "/workspace/dlsdk/jobs/caffe/datasets/d2e5486e-416d-488e-a668-8eeacdf819b5/mean.binaryproto"
  }
  data_param {
    source: "/workspace/dlsdk/jobs/caffe/datasets/d2e5486e-416d-488e-a668-8eeacdf819b5/train.txt_LMDB"
    batch_size: 32
    backend: LMDB
  }
}
layer {
  name: "label_DataColor256_1_split"
  type: "Split"
  bottom: "label"
  top: "label_DataColor256_1_split_0"
  top: "label_DataColor256_1_split_1"
  top: "label_DataColor256_1_split_2"
  top: "label_DataColor256_1_split_3"
}
layer {
  name: "conv1/7x7_s2"
  type: "Convolution"
  bottom: "data"
  top: "conv1/7x7_s2"
  param {
    lr_mult: 1
    decay_mult: 1
  }
  param {
    lr_mult: 2
    decay_mult: 0
  }
  convolution_param {
    num_output: 64
    pad: 3
    kernel_size: 7
    stride: 2
    weight_filler {
      type: "xavier"
      std: 0.1
    }
    bias_filler {
      type: "constant"
      value: 0.2
    }
  }
}
layer {
  name: "conv1/relu_7x7"
  type: "ReLU"
  bottom: "conv1/7x7_s2"
  top: "conv1/7x7_s2"
}
layer {
  name: "pool1/3x3_s2"
  type: "Pooling"
  bottom: "conv1/7x7_s2"
  top: "pool1/3x3_s2"
  pooling_param {
    pool: MAX
    kernel_size: 3
    stride: 2
  }
}
layer {
  name: "pool1/norm1"
  type: "LRN"
  bottom: "pool1/3x3_s2"
  top: "pool1/norm1"
  lrn_param {
    local_size: 5
    alpha: 0.0001
    beta: 0.75
  }
}
layer {
  name: "conv2/3x3_reduce"
  type: "Convolution"
  bottom: "pool1/norm1"
  top: "conv2/3x3_reduce"
  param {
    lr_mult: 1
    decay_mult: 1
  }
  param {
    lr_mult: 2
    decay_mult: 0
  }
  convolution_param {
    num_output: 64
    kernel_size: 1
    weight_filler {
      type: "xavier"
      std: 0.1
    }
    bias_filler {
      type: "constant"
      value: 0.2
    }
  }
}
layer {
  name: "conv2/relu_3x3_reduce"
  type: "ReLU"
  bottom: "conv2/3x3_reduce"
  top: "conv2/3x3_reduce"
}
layer {
  name: "conv2/3x3"
  type: "Convolution"
  bottom: "conv2/3x3_reduce"
  top: "conv2/3x3"
  param {
    lr_mult: 1
    decay_mult: 1
  }
  param {
    lr_mult: 2
    decay_mult: 0
  }
  convolution_param {
    num_output: 192
    pad: 1
    kernel_size: 3
    weight_filler {
      type: "xavier"
      std: 0.03
    }
    bias_filler {
      type: "constant"
      value: 0.2
    }
  }
}
layer {
  name: "conv2/relu_3x3"
  type: "ReLU"
  bottom: "conv2/3x3"
  top: "conv2/3x3"
}
layer {
  name: "conv2/norm2"
  type: "LRN"
  bottom: "conv2/3x3"
  top: "conv2/norm2"
  lrn_param {
    local_size: 5
    alpha: 0.0001
    beta: 0.75
  }
}
layer {
  name: "pool2/3x3_s2"
  type: "Pooling"
  bottom: "conv2/norm2"
  top: "pool2/3x3_s2"
  pooling_param {
    pool: MAX
    kernel_size: 3
    stride: 2
  }
}
layer {
  name: "pool2/3x3_s2_pool2/3x3_s2_0_split"
  type: "Split"
  bottom: "pool2/3x3_s2"
  top: "pool2/3x3_s2_pool2/3x3_s2_0_split_0"
  top: "pool2/3x3_s2_pool2/3x3_s2_0_split_1"
  top: "pool2/3x3_s2_pool2/3x3_s2_0_split_2"
  top: "pool2/3x3_s2_pool2/3x3_s2_0_split_3"
}
layer {
  name: "inception_3a/1x1"
  type: "Convolution"
  bottom: "pool2/3x3_s2_pool2/3x3_s2_0_split_0"
  top: "inception_3a/1x1"
  param {
    lr_mult: 1
    decay_mult: 1
  }
  param {
    lr_mult: 2
    decay_mult: 0
  }
  convolution_param {
    num_output: 64
    kernel_size: 1
    weight_filler {
      type: "xavier"
      std: 0.03
    }
    bias_filler {
      type: "constant"
      value: 0.2
    }
  }
}
layer {
  name: "inception_3a/relu_1x1"
  type: "ReLU"
  bottom: "inception_3a/1x1"
  top: "inception_3a/1x1"
}
layer {
  name: "inception_3a/3x3_reduce"
  type: "Convolution"
  bottom: "pool2/3x3_s2_pool2/3x3_s2_0_split_1"
  top: "inception_3a/3x3_reduce"
  param {
    lr_mult: 1
    decay_mult: 1
  }
  param {
    lr_mult: 2
    decay_mult: 0
  }
  convolution_param {
    num_output: 96
    kernel_size: 1
    weight_filler {
      type: "xavier"
      std: 0.09
    }
    bias_filler {
      type: "constant"
      value: 0.2
    }
  }
}
layer {
  name: "inception_3a/relu_3x3_reduce"
  type: "ReLU"
  bottom: "inception_3a/3x3_reduce"
  top: "inception_3a/3x3_reduce"
}
layer {
  name: "inception_3a/3x3"
  type: "Convolution"
  bottom: "inception_3a/3x3_reduce"
  top: "inception_3a/3x3"
  param {
    lr_mult: 1
    decay_mult: 1
  }
  param {
    lr_mult: 2
    decay_mult: 0
  }
  convolution_param {
    num_output: 128
    pad: 1
    kernel_size: 3
    weight_filler {
      type: "xavier"
      std: 0.03
    }
    bias_filler {
      type: "constant"
      value: 0.2
    }
  }
}
layer {
  name: "inception_3a/relu_3x3"
  type: "ReLU"
  bottom: "inception_3a/3x3"
  top: "inception_3a/3x3"
}
layer {
  name: "inception_3a/5x5_reduce"
  type: "Convolution"
  bottom: "pool2/3x3_s2_pool2/3x3_s2_0_split_2"
  top: "inception_3a/5x5_reduce"
  param {
    lr_mult: 1
    decay_mult: 1
  }
  param {
    lr_mult: 2
    decay_mult: 0
  }
  convolution_param {
    num_output: 16
    kernel_size: 1
    weight_filler {
      type: "xavier"
      std: 0.2
    }
    bias_filler {
      type: "constant"
      value: 0.2
    }
  }
}
layer {
  name: "inception_3a/relu_5x5_reduce"
  type: "ReLU"
  bottom: "inception_3a/5x5_reduce"
  top: "inception_3a/5x5_reduce"
}
layer {
  name: "inception_3a/5x5"
  type: "Convolution"
  bottom: "inception_3a/5x5_reduce"
  top: "inception_3a/5x5"
  param {
    lr_mult: 1
    decay_mult: 1
  }
  param {
    lr_mult: 2
    decay_mult: 0
  }
  convolution_param {
    num_output: 32
    pad: 2
    kernel_size: 5
    weight_filler {
      type: "xavier"
      std: 0.03
    }
    bias_filler {
      type: "constant"
      value: 0.2
    }
  }
}
layer {
  name: "inception_3a/relu_5x5"
  type: "ReLU"
  bottom: "inception_3a/5x5"
  top: "inception_3a/5x5"
}
layer {
  name: "inception_3a/pool"
  type: "Pooling"
  bottom: "pool2/3x3_s2_pool2/3x3_s2_0_split_3"
  top: "inception_3a/pool"
  pooling_param {
    pool: MAX
    kernel_size: 3
    stride: 1
    pad: 1
  }
}
layer {
  name: "inception_3a/pool_proj"
  type: "Convolution"
  bottom: "inception_3a/pool"
  top: "inception_3a/pool_proj"
  param {
    lr_mult: 1
    decay_mult: 1
  }
  param {
    lr_mult: 2
    decay_mult: 0
  }
  convolution_param {
    num_output: 32
    kernel_size: 1
    weight_filler {
      type: "xavier"
      std: 0.1
    }
    bias_filler {
      type: "constant"
      value: 0.2
    }
  }
}
layer {
  name: "inception_3a/relu_pool_proj"
  type: "ReLU"
  bottom: "inception_3a/pool_proj"
  top: "inception_3a/pool_proj"
}
layer {
  name: "inception_3a/output"
  type: "Concat"
  bottom: "inception_3a/1x1"
  bottom: "inception_3a/3x3"
  bottom: "inception_3a/5x5"
  bottom: "inception_3a/pool_proj"
  top: "inception_3a/output"
}
layer {
  name: "inception_3a/output_inception_3a/output_0_split"
  type: "Split"
  bottom: "inception_3a/output"
  top: "inception_3a/output_inception_3a/output_0_split_0"
  top: "inception_3a/output_inception_3a/output_0_split_1"
  top: "inception_3a/output_inception_3a/output_0_split_2"
  top: "inception_3a/output_inception_3a/output_0_split_3"
}
layer {
  name: "inception_3b/1x1"
  type: "Convolution"
  bottom: "inception_3a/output_inception_3a/output_0_split_0"
  top: "inception_3b/1x1"
  param {
    lr_mult: 1
    decay_mult: 1
  }
  param {
    lr_mult: 2
    decay_mult: 0
  }
  convolution_param {
    num_output: 128
    kernel_size: 1
    weight_filler {
      type: "xavier"
      std: 0.03
    }
    bias_filler {
      type: "constant"
      value: 0.2
    }
  }
}
layer {
  name: "inception_3b/relu_1x1"
  type: "ReLU"
  bottom: "inception_3b/1x1"
  top: "inception_3b/1x1"
}
layer {
  name: "inception_3b/3x3_reduce"
  type: "Convolution"
  bottom: "inception_3a/output_inception_3a/output_0_split_1"
  top: "inception_3b/3x3_reduce"
  param {
    lr_mult: 1
    decay_mult: 1
  }
  param {
    lr_mult: 2
    decay_mult: 0
  }
  convolution_param {
    num_output: 128
    kernel_size: 1
    weight_filler {
      type: "xavier"
      std: 0.09
    }
    bias_filler {
      type: "constant"
      value: 0.2
    }
  }
}
layer {
  name: "inception_3b/relu_3x3_reduce"
  type: "ReLU"
  bottom: "inception_3b/3x3_reduce"
  top: "inception_3b/3x3_reduce"
}
layer {
  name: "inception_3b/3x3"
  type: "Convolution"
  bottom: "inception_3b/3x3_reduce"
  top: "inception_3b/3x3"
  param {
    lr_mult: 1
    decay_mult: 1
  }
  param {
    lr_mult: 2
    decay_mult: 0
  }
  convolution_param {
    num_output: 192
    pad: 1
    kernel_size: 3
    weight_filler {
      type: "xavier"
      std: 0.03
    }
    bias_filler {
      type: "constant"
      value: 0.2
    }
  }
}
layer {
  name: "inception_3b/relu_3x3"
  type: "ReLU"
  bottom: "inception_3b/3x3"
  top: "inception_3b/3x3"
}
layer {
  name: "inception_3b/5x5_reduce"
  type: "Convolution"
  bottom: "inception_3a/output_inception_3a/output_0_split_2"
  top: "inception_3b/5x5_reduce"
  param {
    lr_mult: 1
    decay_mult: 1
  }
  param {
    lr_mult: 2
    decay_mult: 0
  }
  convolution_param {
    num_output: 32
    kernel_size: 1
    weight_filler {
      type: "xavier"
      std: 0.2
    }
    bias_filler {
      type: "constant"
      value: 0.2
    }
  }
}
layer {
  name: "inception_3b/relu_5x5_reduce"
  type: "ReLU"
  bottom: "inception_3b/5x5_reduce"
  top: "inception_3b/5x5_reduce"
}
layer {
  name: "inception_3b/5x5"
  type: "Convolution"
  bottom: "inception_3b/5x5_reduce"
  top: "inception_3b/5x5"
  param {
    lr_mult: 1
    decay_mult: 1
  }
  param {
    lr_mult: 2
    decay_mult: 0
  }
  convolution_param {
    num_output: 96
    pad: 2
    kernel_size: 5
    weight_filler {
      type: "xavier"
      std: 0.03
    }
    bias_filler {
      type: "constant"
      value: 0.2
    }
  }
}
layer {
  name: "inception_3b/relu_5x5"
  type: "ReLU"
  bottom: "inception_3b/5x5"
  top: "inception_3b/5x5"
}
layer {
  name: "inception_3b/pool"
  type: "Pooling"
  bottom: "inception_3a/output_inception_3a/output_0_split_3"
  top: "inception_3b/pool"
  pooling_param {
    pool: MAX
    kernel_size: 3
    stride: 1
    pad: 1
  }
}
layer {
  name: "inception_3b/pool_proj"
  type: "Convolution"
  bottom: "inception_3b/pool"
  top: "inception_3b/pool_proj"
  param {
    lr_mult: 1
    decay_mult: 1
  }
  param {
    lr_mult: 2
    decay_mult: 0
  }
  convolution_param {
    num_output: 64
    kernel_size: 1
    weight_filler {
      type: "xavier"
      std: 0.1
    }
    bias_filler {
      type: "constant"
      value: 0.2
    }
  }
}
layer {
  name: "inception_3b/relu_pool_proj"
  type: "ReLU"
  bottom: "inception_3b/pool_proj"
  top: "inception_3b/pool_proj"
}
layer {
  name: "inception_3b/output"
  type: "Concat"
  bottom: "inception_3b/1x1"
  bottom: "inception_3b/3x3"
  bottom: "inception_3b/5x5"
  bottom: "inception_3b/pool_proj"
  top: "inception_3b/output"
}
layer {
  name: "pool3/3x3_s2"
  type: "Pooling"
  bottom: "inception_3b/output"
  top: "pool3/3x3_s2"
  pooling_param {
    pool: MAX
    kernel_size: 3
    stride: 2
  }
}
layer {
  name: "pool3/3x3_s2_pool3/3x3_s2_0_split"
  type: "Split"
  bottom: "pool3/3x3_s2"
  top: "pool3/3x3_s2_pool3/3x3_s2_0_split_0"
  top: "pool3/3x3_s2_pool3/3x3_s2_0_split_1"
  top: "pool3/3x3_s2_pool3/3x3_s2_0_split_2"
  top: "pool3/3x3_s2_pool3/3x3_s2_0_split_3"
}
layer {
  name: "inception_4a/1x1"
  type: "Convolution"
  bottom: "pool3/3x3_s2_pool3/3x3_s2_0_split_0"
  top: "inception_4a/1x1"
  param {
    lr_mult: 1
    decay_mult: 1
  }
  param {
    lr_mult: 2
    decay_mult: 0
  }
  convolution_param {
    num_output: 192
    kernel_size: 1
    weight_filler {
      type: "xavier"
      std: 0.03
    }
    bias_filler {
      type: "constant"
      value: 0.2
    }
  }
}
layer {
  name: "inception_4a/relu_1x1"
  type: "ReLU"
  bottom: "inception_4a/1x1"
  top: "inception_4a/1x1"
}
layer {
  name: "inception_4a/3x3_reduce"
  type: "Convolution"
  bottom: "pool3/3x3_s2_pool3/3x3_s2_0_split_1"
  top: "inception_4a/3x3_reduce"
  param {
    lr_mult: 1
    decay_mult: 1
  }
  param {
    lr_mult: 2
    decay_mult: 0
  }
  convolution_param {
    num_output: 96
    kernel_size: 1
    weight_filler {
      type: "xavier"
      std: 0.09
    }
    bias_filler {
      type: "constant"
      value: 0.2
    }
  }
}
layer {
  name: "inception_4a/relu_3x3_reduce"
  type: "ReLU"
  bottom: "inception_4a/3x3_reduce"
  top: "inception_4a/3x3_reduce"
}
layer {
  name: "inception_4a/3x3"
  type: "Convolution"
  bottom: "inception_4a/3x3_reduce"
  top: "inception_4a/3x3"
  param {
    lr_mult: 1
    decay_mult: 1
  }
  param {
    lr_mult: 2
    decay_mult: 0
  }
  convolution_param {
    num_output: 208
    pad: 1
    kernel_size: 3
    weight_filler {
      type: "xavier"
      std: 0.03
    }
    bias_filler {
      type: "constant"
      value: 0.2
    }
  }
}
layer {
  name: "inception_4a/relu_3x3"
  type: "ReLU"
  bottom: "inception_4a/3x3"
  top: "inception_4a/3x3"
}
layer {
  name: "inception_4a/5x5_reduce"
  type: "Convolution"
  bottom: "pool3/3x3_s2_pool3/3x3_s2_0_split_2"
  top: "inception_4a/5x5_reduce"
  param {
    lr_mult: 1
    decay_mult: 1
  }
  param {
    lr_mult: 2
    decay_mult: 0
  }
  convolution_param {
    num_output: 16
    kernel_size: 1
    weight_filler {
      type: "xavier"
      std: 0.2
    }
    bias_filler {
      type: "constant"
      value: 0.2
    }
  }
}
layer {
  name: "inception_4a/relu_5x5_reduce"
  type: "ReLU"
  bottom: "inception_4a/5x5_reduce"
  top: "inception_4a/5x5_reduce"
}
layer {
  name: "inception_4a/5x5"
  type: "Convolution"
  bottom: "inception_4a/5x5_reduce"
  top: "inception_4a/5x5"
  param {
    lr_mult: 1
    decay_mult: 1
  }
  param {
    lr_mult: 2
    decay_mult: 0
  }
  convolution_param {
    num_output: 48
    pad: 2
    kernel_size: 5
    weight_filler {
      type: "xavier"
      std: 0.03
    }
    bias_filler {
      type: "constant"
      value: 0.2
    }
  }
}
layer {
  name: "inception_4a/relu_5x5"
  type: "ReLU"
  bottom: "inception_4a/5x5"
  top: "inception_4a/5x5"
}
layer {
  name: "inception_4a/pool"
  type: "Pooling"
  bottom: "pool3/3x3_s2_pool3/3x3_s2_0_split_3"
  top: "inception_4a/pool"
  pooling_param {
    pool: MAX
    kernel_size: 3
    stride: 1
    pad: 1
  }
}
layer {
  name: "inception_4a/pool_proj"
  type: "Convolution"
  bottom: "inception_4a/pool"
  top: "inception_4a/pool_proj"
  param {
    lr_mult: 1
    decay_mult: 1
  }
  param {
    lr_mult: 2
    decay_mult: 0
  }
  convolution_param {
    num_output: 64
    kernel_size: 1
    weight_filler {
      type: "xavier"
      std: 0.1
    }
    bias_filler {
      type: "constant"
      value: 0.2
    }
  }
}
layer {
  name: "inception_4a/relu_pool_proj"
  type: "ReLU"
  bottom: "inception_4a/pool_proj"
  top: "inception_4a/pool_proj"
}
layer {
  name: "inception_4a/output"
  type: "Concat"
  bottom: "inception_4a/1x1"
  bottom: "inception_4a/3x3"
  bottom: "inception_4a/5x5"
  bottom: "inception_4a/pool_proj"
  top: "inception_4a/output"
}
layer {
  name: "inception_4a/output_inception_4a/output_0_split"
  type: "Split"
  bottom: "inception_4a/output"
  top: "inception_4a/output_inception_4a/output_0_split_0"
  top: "inception_4a/output_inception_4a/output_0_split_1"
  top: "inception_4a/output_inception_4a/output_0_split_2"
  top: "inception_4a/output_inception_4a/output_0_split_3"
  top: "inception_4a/output_inception_4a/output_0_split_4"
}
layer {
  name: "loss1/ave_pool"
  type: "Pooling"
  bottom: "inception_4a/output_inception_4a/output_0_split_0"
  top: "loss1/ave_pool"
  exclude {
    stage: "deploy"
  }
  pooling_param {
    pool: AVE
    kernel_size: 5
    stride: 3
  }
}
layer {
  name: "loss1/conv"
  type: "Convolution"
  bottom: "loss1/ave_pool"
  top: "loss1/conv"
  param {
    lr_mult: 1
    decay_mult: 1
  }
  param {
    lr_mult: 2
    decay_mult: 0
  }
  exclude {
    stage: "deploy"
  }
  convolution_param {
    num_output: 128
    kernel_size: 1
    weight_filler {
      type: "xavier"
      std: 0.08
    }
    bias_filler {
      type: "constant"
      value: 0.2
    }
  }
}
layer {
  name: "loss1/relu_conv"
  type: "ReLU"
  bottom: "loss1/conv"
  top: "loss1/conv"
  exclude {
    stage: "deploy"
  }
}
layer {
  name: "loss1/fc"
  type: "InnerProduct"
  bottom: "loss1/conv"
  top: "loss1/fc"
  param {
    lr_mult: 1
    decay_mult: 1
  }
  param {
    lr_mult: 2
    decay_mult: 0
  }
  exclude {
    stage: "deploy"
  }
  inner_product_param {
    num_output: 1024
    weight_filler {
      type: "xavier"
      std: 0.02
    }
    bias_filler {
      type: "constant"
      value: 0.2
    }
  }
}
layer {
  name: "loss1/relu_fc"
  type: "ReLU"
  bottom: "loss1/fc"
  top: "loss1/fc"
  exclude {
    stage: "deploy"
  }
}
layer {
  name: "loss1/drop_fc"
  type: "Dropout"
  bottom: "loss1/fc"
  top: "loss1/fc"
  exclude {
    stage: "deploy"
  }
  dropout_param {
    dropout_ratio: 0.7
  }
}
layer {
  name: "loss1/classifier"
  type: "InnerProduct"
  bottom: "loss1/fc"
  top: "loss1/classifier"
  param {
    lr_mult: 1
    decay_mult: 1
  }
  param {
    lr_mult: 2
    decay_mult: 0
  }
  exclude {
    stage: "deploy"
  }
  inner_product_param {
    num_output: 3
    weight_filler {
      type: "xavier"
      std: 0.0009765625
    }
    bias_filler {
      type: "constant"
      value: 0
    }
  }
}
layer {
  name: "loss1/loss"
  type: "SoftmaxWithLoss"
  bottom: "loss1/classifier"
  bottom: "label_DataColor256_1_split_0"
  top: "loss1/loss"
  loss_weight: 0.3
  exclude {
    stage: "deploy"
  }
}
layer {
  name: "inception_4b/1x1"
  type: "Convolution"
  bottom: "inception_4a/output_inception_4a/output_0_split_1"
  top: "inception_4b/1x1"
  param {
    lr_mult: 1
    decay_mult: 1
  }
  param {
    lr_mult: 2
    decay_mult: 0
  }
  convolution_param {
    num_output: 160
    kernel_size: 1
    weight_filler {
      type: "xavier"
      std: 0.03
    }
    bias_filler {
      type: "constant"
      value: 0.2
    }
  }
}
layer {
  name: "inception_4b/relu_1x1"
  type: "ReLU"
  bottom: "inception_4b/1x1"
  top: "inception_4b/1x1"
}
layer {
  name: "inception_4b/3x3_reduce"
  type: "Convolution"
  bottom: "inception_4a/output_inception_4a/output_0_split_2"
  top: "inception_4b/3x3_reduce"
  param {
    lr_mult: 1
    decay_mult: 1
  }
  param {
    lr_mult: 2
    decay_mult: 0
  }
  convolution_param {
    num_output: 112
    kernel_size: 1
    weight_filler {
      type: "xavier"
      std: 0.09
    }
    bias_filler {
      type: "constant"
      value: 0.2
    }
  }
}
layer {
  name: "inception_4b/relu_3x3_reduce"
  type: "ReLU"
  bottom: "inception_4b/3x3_reduce"
  top: "inception_4b/3x3_reduce"
}
layer {
  name: "inception_4b/3x3"
  type: "Convolution"
  bottom: "inception_4b/3x3_reduce"
  top: "inception_4b/3x3"
  param {
    lr_mult: 1
    decay_mult: 1
  }
  param {
    lr_mult: 2
    decay_mult: 0
  }
  convolution_param {
    num_output: 224
    pad: 1
    kernel_size: 3
    weight_filler {
      type: "xavier"
      std: 0.03
    }
    bias_filler {
      type: "constant"
      value: 0.2
    }
  }
}
layer {
  name: "inception_4b/relu_3x3"
  type: "ReLU"
  bottom: "inception_4b/3x3"
  top: "inception_4b/3x3"
}
layer {
  name: "inception_4b/5x5_reduce"
  type: "Convolution"
  bottom: "inception_4a/output_inception_4a/output_0_split_3"
  top: "inception_4b/5x5_reduce"
  param {
    lr_mult: 1
    decay_mult: 1
  }
  param {
    lr_mult: 2
    decay_mult: 0
  }
  convolution_param {
    num_output: 24
    kernel_size: 1
    weight_filler {
      type: "xavier"
      std: 0.2
    }
    bias_filler {
      type: "constant"
      value: 0.2
    }
  }
}
layer {
  name: "inception_4b/relu_5x5_reduce"
  type: "ReLU"
  bottom: "inception_4b/5x5_reduce"
  top: "inception_4b/5x5_reduce"
}
layer {
  name: "inception_4b/5x5"
  type: "Convolution"
  bottom: "inception_4b/5x5_reduce"
  top: "inception_4b/5x5"
  param {
    lr_mult: 1
    decay_mult: 1
  }
  param {
    lr_mult: 2
    decay_mult: 0
  }
  convolution_param {
    num_output: 64
    pad: 2
    kernel_size: 5
    weight_filler {
      type: "xavier"
      std: 0.03
    }
    bias_filler {
      type: "constant"
      value: 0.2
    }
  }
}
layer {
  name: "inception_4b/relu_5x5"
  type: "ReLU"
  bottom: "inception_4b/5x5"
  top: "inception_4b/5x5"
}
layer {
  name: "inception_4b/pool"
  type: "Pooling"
  bottom: "inception_4a/output_inception_4a/output_0_split_4"
  top: "inception_4b/pool"
  pooling_param {
    pool: MAX
    kernel_size: 3
    stride: 1
    pad: 1
  }
}
layer {
  name: "inception_4b/pool_proj"
  type: "Convolution"
  bottom: "inception_4b/pool"
  top: "inception_4b/pool_proj"
  param {
    lr_mult: 1
    decay_mult: 1
  }
  param {
    lr_mult: 2
    decay_mult: 0
  }
  convolution_param {
    num_output: 64
    kernel_size: 1
    weight_filler {
      type: "xavier"
      std: 0.1
    }
    bias_filler {
      type: "constant"
      value: 0.2
    }
  }
}
layer {
  name: "inception_4b/relu_pool_proj"
  type: "ReLU"
  bottom: "inception_4b/pool_proj"
  top: "inception_4b/pool_proj"
}
layer {
  name: "inception_4b/output"
  type: "Concat"
  bottom: "inception_4b/1x1"
  bottom: "inception_4b/3x3"
  bottom: "inception_4b/5x5"
  bottom: "inception_4b/pool_proj"
  top: "inception_4b/output"
}
layer {
  name: "inception_4b/output_inception_4b/output_0_split"
  type: "Split"
  bottom: "inception_4b/output"
  top: "inception_4b/output_inception_4b/output_0_split_0"
  top: "inception_4b/output_inception_4b/output_0_split_1"
  top: "inception_4b/output_inception_4b/output_0_split_2"
  top: "inception_4b/output_inception_4b/output_0_split_3"
}
layer {
  name: "inception_4c/1x1"
  type: "Convolution"
  bottom: "inception_4b/output_inception_4b/output_0_split_0"
  top: "inception_4c/1x1"
  param {
    lr_mult: 1
    decay_mult: 1
  }
  param {
    lr_mult: 2
    decay_mult: 0
  }
  convolution_param {
    num_output: 128
    kernel_size: 1
    weight_filler {
      type: "xavier"
      std: 0.03
    }
    bias_filler {
      type: "constant"
      value: 0.2
    }
  }
}
layer {
  name: "inception_4c/relu_1x1"
  type: "ReLU"
  bottom: "inception_4c/1x1"
  top: "inception_4c/1x1"
}
layer {
  name: "inception_4c/3x3_reduce"
  type: "Convolution"
  bottom: "inception_4b/output_inception_4b/output_0_split_1"
  top: "inception_4c/3x3_reduce"
  param {
    lr_mult: 1
    decay_mult: 1
  }
  param {
    lr_mult: 2
    decay_mult: 0
  }
  convolution_param {
    num_output: 128
    kernel_size: 1
    weight_filler {
      type: "xavier"
      std: 0.09
    }
    bias_filler {
      type: "constant"
      value: 0.2
    }
  }
}
layer {
  name: "inception_4c/relu_3x3_reduce"
  type: "ReLU"
  bottom: "inception_4c/3x3_reduce"
  top: "inception_4c/3x3_reduce"
}
layer {
  name: "inception_4c/3x3"
  type: "Convolution"
  bottom: "inception_4c/3x3_reduce"
  top: "inception_4c/3x3"
  param {
    lr_mult: 1
    decay_mult: 1
  }
  param {
    lr_mult: 2
    decay_mult: 0
  }
  convolution_param {
    num_output: 256
    pad: 1
    kernel_size: 3
    weight_filler {
      type: "xavier"
      std: 0.03
    }
    bias_filler {
      type: "constant"
      value: 0.2
    }
  }
}
layer {
  name: "inception_4c/relu_3x3"
  type: "ReLU"
  bottom: "inception_4c/3x3"
  top: "inception_4c/3x3"
}
layer {
  name: "inception_4c/5x5_reduce"
  type: "Convolution"
  bottom: "inception_4b/output_inception_4b/output_0_split_2"
  top: "inception_4c/5x5_reduce"
  param {
    lr_mult: 1
    decay_mult: 1
  }
  param {
    lr_mult: 2
    decay_mult: 0
  }
  convolution_param {
    num_output: 24
    kernel_size: 1
    weight_filler {
      type: "xavier"
      std: 0.2
    }
    bias_filler {
      type: "constant"
      value: 0.2
    }
  }
}
layer {
  name: "inception_4c/relu_5x5_reduce"
  type: "ReLU"
  bottom: "inception_4c/5x5_reduce"
  top: "inception_4c/5x5_reduce"
}
layer {
  name: "inception_4c/5x5"
  type: "Convolution"
  bottom: "inception_4c/5x5_reduce"
  top: "inception_4c/5x5"
  param {
    lr_mult: 1
    decay_mult: 1
  }
  param {
    lr_mult: 2
    decay_mult: 0
  }
  convolution_param {
    num_output: 64
    pad: 2
    kernel_size: 5
    weight_filler {
      type: "xavier"
      std: 0.03
    }
    bias_filler {
      type: "constant"
      value: 0.2
    }
  }
}
layer {
  name: "inception_4c/relu_5x5"
  type: "ReLU"
  bottom: "inception_4c/5x5"
  top: "inception_4c/5x5"
}
layer {
  name: "inception_4c/pool"
  type: "Pooling"
  bottom: "inception_4b/output_inception_4b/output_0_split_3"
  top: "inception_4c/pool"
  pooling_param {
    pool: MAX
    kernel_size: 3
    stride: 1
    pad: 1
  }
}
layer {
  name: "inception_4c/pool_proj"
  type: "Convolution"
  bottom: "inception_4c/pool"
  top: "inception_4c/pool_proj"
  param {
    lr_mult: 1
    decay_mult: 1
  }
  param {
    lr_mult: 2
    decay_mult: 0
  }
  convolution_param {
    num_output: 64
    kernel_size: 1
    weight_filler {
      type: "xavier"
      std: 0.1
    }
    bias_filler {
      type: "constant"
      value: 0.2
    }
  }
}
layer {
  name: "inception_4c/relu_pool_proj"
  type: "ReLU"
  bottom: "inception_4c/pool_proj"
  top: "inception_4c/pool_proj"
}
layer {
  name: "inception_4c/output"
  type: "Concat"
  bottom: "inception_4c/1x1"
  bottom: "inception_4c/3x3"
  bottom: "inception_4c/5x5"
  bottom: "inception_4c/pool_proj"
  top: "inception_4c/output"
}
layer {
  name: "inception_4c/output_inception_4c/output_0_split"
  type: "Split"
  bottom: "inception_4c/output"
  top: "inception_4c/output_inception_4c/output_0_split_0"
  top: "inception_4c/output_inception_4c/output_0_split_1"
  top: "inception_4c/output_inception_4c/output_0_split_2"
  top: "inception_4c/output_inception_4c/output_0_split_3"
}
layer {
  name: "inception_4d/1x1"
  type: "Convolution"
  bottom: "inception_4c/output_inception_4c/output_0_split_0"
  top: "inception_4d/1x1"
  param {
    lr_mult: 1
    decay_mult: 1
  }
  param {
    lr_mult: 2
    decay_mult: 0
  }
  convolution_param {
    num_output: 112
    kernel_size: 1
    weight_filler {
      type: "xavier"
      std: 0.03
    }
    bias_filler {
      type: "constant"
      value: 0.2
    }
  }
}
layer {
  name: "inception_4d/relu_1x1"
  type: "ReLU"
  bottom: "inception_4d/1x1"
  top: "inception_4d/1x1"
}
layer {
  name: "inception_4d/3x3_reduce"
  type: "Convolution"
  bottom: "inception_4c/output_inception_4c/output_0_split_1"
  top: "inception_4d/3x3_reduce"
  param {
    lr_mult: 1
    decay_mult: 1
  }
  param {
    lr_mult: 2
    decay_mult: 0
  }
  convolution_param {
    num_output: 144
    kernel_size: 1
    weight_filler {
      type: "xavier"
      std: 0.09
    }
    bias_filler {
      type: "constant"
      value: 0.2
    }
  }
}
layer {
  name: "inception_4d/relu_3x3_reduce"
  type: "ReLU"
  bottom: "inception_4d/3x3_reduce"
  top: "inception_4d/3x3_reduce"
}
layer {
  name: "inception_4d/3x3"
  type: "Convolution"
  bottom: "inception_4d/3x3_reduce"
  top: "inception_4d/3x3"
  param {
    lr_mult: 1
    decay_mult: 1
  }
  param {
    lr_mult: 2
    decay_mult: 0
  }
  convolution_param {
    num_output: 288
    pad: 1
    kernel_size: 3
    weight_filler {
      type: "xavier"
      std: 0.03
    }
    bias_filler {
      type: "constant"
      value: 0.2
    }
  }
}
layer {
  name: "inception_4d/relu_3x3"
  type: "ReLU"
  bottom: "inception_4d/3x3"
  top: "inception_4d/3x3"
}
layer {
  name: "inception_4d/5x5_reduce"
  type: "Convolution"
  bottom: "inception_4c/output_inception_4c/output_0_split_2"
  top: "inception_4d/5x5_reduce"
  param {
    lr_mult: 1
    decay_mult: 1
  }
  param {
    lr_mult: 2
    decay_mult: 0
  }
  convolution_param {
    num_output: 32
    kernel_size: 1
    weight_filler {
      type: "xavier"
      std: 0.2
    }
    bias_filler {
      type: "constant"
      value: 0.2
    }
  }
}
layer {
  name: "inception_4d/relu_5x5_reduce"
  type: "ReLU"
  bottom: "inception_4d/5x5_reduce"
  top: "inception_4d/5x5_reduce"
}
layer {
  name: "inception_4d/5x5"
  type: "Convolution"
  bottom: "inception_4d/5x5_reduce"
  top: "inception_4d/5x5"
  param {
    lr_mult: 1
    decay_mult: 1
  }
  param {
    lr_mult: 2
    decay_mult: 0
  }
  convolution_param {
    num_output: 64
    pad: 2
    kernel_size: 5
    weight_filler {
      type: "xavier"
      std: 0.03
    }
    bias_filler {
      type: "constant"
      value: 0.2
    }
  }
}
layer {
  name: "inception_4d/relu_5x5"
  type: "ReLU"
  bottom: "inception_4d/5x5"
  top: "inception_4d/5x5"
}
layer {
  name: "inception_4d/pool"
  type: "Pooling"
  bottom: "inception_4c/output_inception_4c/output_0_split_3"
  top: "inception_4d/pool"
  pooling_param {
    pool: MAX
    kernel_size: 3
    stride: 1
    pad: 1
  }
}
layer {
  name: "inception_4d/pool_proj"
  type: "Convolution"
  bottom: "inception_4d/pool"
  top: "inception_4d/pool_proj"
  param {
    lr_mult: 1
    decay_mult: 1
  }
  param {
    lr_mult: 2
    decay_mult: 0
  }
  convolution_param {
    num_output: 64
    kernel_size: 1
    weight_filler {
      type: "xavier"
      std: 0.1
    }
    bias_filler {
      type: "constant"
      value: 0.2
    }
  }
}
layer {
  name: "inception_4d/relu_pool_proj"
  type: "ReLU"
  bottom: "inception_4d/pool_proj"
  top: "inception_4d/pool_proj"
}
layer {
  name: "inception_4d/output"
  type: "Concat"
  bottom: "inception_4d/1x1"
  bottom: "inception_4d/3x3"
  bottom: "inception_4d/5x5"
  bottom: "inception_4d/pool_proj"
  top: "inception_4d/output"
}
layer {
  name: "inception_4d/output_inception_4d/output_0_split"
  type: "Split"
  bottom: "inception_4d/output"
  top: "inception_4d/output_inception_4d/output_0_split_0"
  top: "inception_4d/output_inception_4d/output_0_split_1"
  top: "inception_4d/output_inception_4d/output_0_split_2"
  top: "inception_4d/output_inception_4d/output_0_split_3"
  top: "inception_4d/output_inception_4d/output_0_split_4"
}
layer {
  name: "loss2/ave_pool"
  type: "Pooling"
  bottom: "inception_4d/output_inception_4d/output_0_split_0"
  top: "loss2/ave_pool"
  exclude {
    stage: "deploy"
  }
  pooling_param {
    pool: AVE
    kernel_size: 5
    stride: 3
  }
}
layer {
  name: "loss2/conv"
  type: "Convolution"
  bottom: "loss2/ave_pool"
  top: "loss2/conv"
  param {
    lr_mult: 1
    decay_mult: 1
  }
  param {
    lr_mult: 2
    decay_mult: 0
  }
  exclude {
    stage: "deploy"
  }
  convolution_param {
    num_output: 128
    kernel_size: 1
    weight_filler {
      type: "xavier"
      std: 0.08
    }
    bias_filler {
      type: "constant"
      value: 0.2
    }
  }
}
layer {
  name: "loss2/relu_conv"
  type: "ReLU"
  bottom: "loss2/conv"
  top: "loss2/conv"
  exclude {
    stage: "deploy"
  }
}
layer {
  name: "loss2/fc"
  type: "InnerProduct"
  bottom: "loss2/conv"
  top: "loss2/fc"
  param {
    lr_mult: 1
    decay_mult: 1
  }
  param {
    lr_mult: 2
    decay_mult: 0
  }
  exclude {
    stage: "deploy"
  }
  inner_product_param {
    num_output: 1024
    weight_filler {
      type: "xavier"
      std: 0.02
    }
    bias_filler {
      type: "constant"
      value: 0.2
    }
  }
}
layer {
  name: "loss2/relu_fc"
  type: "ReLU"
  bottom: "loss2/fc"
  top: "loss2/fc"
  exclude {
    stage: "deploy"
  }
}
layer {
  name: "loss2/drop_fc"
  type: "Dropout"
  bottom: "loss2/fc"
  top: "loss2/fc"
  exclude {
    stage: "deploy"
  }
  dropout_param {
    dropout_ratio: 0.7
  }
}
layer {
  name: "loss2/classifier"
  type: "InnerProduct"
  bottom: "loss2/fc"
  top: "loss2/classifier"
  param {
    lr_mult: 1
    decay_mult: 1
  }
  param {
    lr_mult: 2
    decay_mult: 0
  }
  exclude {
    stage: "deploy"
  }
  inner_product_param {
    num_output: 3
    weight_filler {
      type: "xavier"
      std: 0.0009765625
    }
    bias_filler {
      type: "constant"
      value: 0
    }
  }
}
layer {
  name: "loss2/loss"
  type: "SoftmaxWithLoss"
  bottom: "loss2/classifier"
  bottom: "label_DataColor256_1_split_1"
  top: "loss2/loss"
  loss_weight: 0.3
  exclude {
    stage: "deploy"
  }
}
layer {
  name: "inception_4e/1x1"
  type: "Convolution"
  bottom: "inception_4d/output_inception_4d/output_0_split_1"
  top: "inception_4e/1x1"
  param {
    lr_mult: 1
    decay_mult: 1
  }
  param {
    lr_mult: 2
    decay_mult: 0
  }
  convolution_param {
    num_output: 256
    kernel_size: 1
    weight_filler {
      type: "xavier"
      std: 0.03
    }
    bias_filler {
      type: "constant"
      value: 0.2
    }
  }
}
layer {
  name: "inception_4e/relu_1x1"
  type: "ReLU"
  bottom: "inception_4e/1x1"
  top: "inception_4e/1x1"
}
layer {
  name: "inception_4e/3x3_reduce"
  type: "Convolution"
  bottom: "inception_4d/output_inception_4d/output_0_split_2"
  top: "inception_4e/3x3_reduce"
  param {
    lr_mult: 1
    decay_mult: 1
  }
  param {
    lr_mult: 2
    decay_mult: 0
  }
  convolution_param {
    num_output: 160
    kernel_size: 1
    weight_filler {
      type: "xavier"
      std: 0.09
    }
    bias_filler {
      type: "constant"
      value: 0.2
    }
  }
}
layer {
  name: "inception_4e/relu_3x3_reduce"
  type: "ReLU"
  bottom: "inception_4e/3x3_reduce"
  top: "inception_4e/3x3_reduce"
}
layer {
  name: "inception_4e/3x3"
  type: "Convolution"
  bottom: "inception_4e/3x3_reduce"
  top: "inception_4e/3x3"
  param {
    lr_mult: 1
    decay_mult: 1
  }
  param {
    lr_mult: 2
    decay_mult: 0
  }
  convolution_param {
    num_output: 320
    pad: 1
    kernel_size: 3
    weight_filler {
      type: "xavier"
      std: 0.03
    }
    bias_filler {
      type: "constant"
      value: 0.2
    }
  }
}
layer {
  name: "inception_4e/relu_3x3"
  type: "ReLU"
  bottom: "inception_4e/3x3"
  top: "inception_4e/3x3"
}
layer {
  name: "inception_4e/5x5_reduce"
  type: "Convolution"
  bottom: "inception_4d/output_inception_4d/output_0_split_3"
  top: "inception_4e/5x5_reduce"
  param {
    lr_mult: 1
    decay_mult: 1
  }
  param {
    lr_mult: 2
    decay_mult: 0
  }
  convolution_param {
    num_output: 32
    kernel_size: 1
    weight_filler {
      type: "xavier"
      std: 0.2
    }
    bias_filler {
      type: "constant"
      value: 0.2
    }
  }
}
layer {
  name: "inception_4e/relu_5x5_reduce"
  type: "ReLU"
  bottom: "inception_4e/5x5_reduce"
  top: "inception_4e/5x5_reduce"
}
layer {
  name: "inception_4e/5x5"
  type: "Convolution"
  bottom: "inception_4e/5x5_reduce"
  top: "inception_4e/5x5"
  param {
    lr_mult: 1
    decay_mult: 1
  }
  param {
    lr_mult: 2
    decay_mult: 0
  }
  convolution_param {
    num_output: 128
    pad: 2
    kernel_size: 5
    weight_filler {
      type: "xavier"
      std: 0.03
    }
    bias_filler {
      type: "constant"
      value: 0.2
    }
  }
}
layer {
  name: "inception_4e/relu_5x5"
  type: "ReLU"
  bottom: "inception_4e/5x5"
  top: "inception_4e/5x5"
}
layer {
  name: "inception_4e/pool"
  type: "Pooling"
  bottom: "inception_4d/output_inception_4d/output_0_split_4"
  top: "inception_4e/pool"
  pooling_param {
    pool: MAX
    kernel_size: 3
    stride: 1
    pad: 1
  }
}
layer {
  name: "inception_4e/pool_proj"
  type: "Convolution"
  bottom: "inception_4e/pool"
  top: "inception_4e/pool_proj"
  param {
    lr_mult: 1
    decay_mult: 1
  }
  param {
    lr_mult: 2
    decay_mult: 0
  }
  convolution_param {
    num_output: 128
    kernel_size: 1
    weight_filler {
      type: "xavier"
      std: 0.1
    }
    bias_filler {
      type: "constant"
      value: 0.2
    }
  }
}
layer {
  name: "inception_4e/relu_pool_proj"
  type: "ReLU"
  bottom: "inception_4e/pool_proj"
  top: "inception_4e/pool_proj"
}
layer {
  name: "inception_4e/output"
  type: "Concat"
  bottom: "inception_4e/1x1"
  bottom: "inception_4e/3x3"
  bottom: "inception_4e/5x5"
  bottom: "inception_4e/pool_proj"
  top: "inception_4e/output"
}
layer {
  name: "pool4/3x3_s2"
  type: "Pooling"
  bottom: "inception_4e/output"
  top: "pool4/3x3_s2"
  pooling_param {
    pool: MAX
    kernel_size: 3
    stride: 2
  }
}
layer {
  name: "pool4/3x3_s2_pool4/3x3_s2_0_split"
  type: "Split"
  bottom: "pool4/3x3_s2"
  top: "pool4/3x3_s2_pool4/3x3_s2_0_split_0"
  top: "pool4/3x3_s2_pool4/3x3_s2_0_split_1"
  top: "pool4/3x3_s2_pool4/3x3_s2_0_split_2"
  top: "pool4/3x3_s2_pool4/3x3_s2_0_split_3"
}
layer {
  name: "inception_5a/1x1"
  type: "Convolution"
  bottom: "pool4/3x3_s2_pool4/3x3_s2_0_split_0"
  top: "inception_5a/1x1"
  param {
    lr_mult: 1
    decay_mult: 1
  }
  param {
    lr_mult: 2
    decay_mult: 0
  }
  convolution_param {
    num_output: 256
    kernel_size: 1
    weight_filler {
      type: "xavier"
      std: 0.03
    }
    bias_filler {
      type: "constant"
      value: 0.2
    }
  }
}
layer {
  name: "inception_5a/relu_1x1"
  type: "ReLU"
  bottom: "inception_5a/1x1"
  top: "inception_5a/1x1"
}
layer {
  name: "inception_5a/3x3_reduce"
  type: "Convolution"
  bottom: "pool4/3x3_s2_pool4/3x3_s2_0_split_1"
  top: "inception_5a/3x3_reduce"
  param {
    lr_mult: 1
    decay_mult: 1
  }
  param {
    lr_mult: 2
    decay_mult: 0
  }
  convolution_param {
    num_output: 160
    kernel_size: 1
    weight_filler {
      type: "xavier"
      std: 0.09
    }
    bias_filler {
      type: "constant"
      value: 0.2
    }
  }
}
layer {
  name: "inception_5a/relu_3x3_reduce"
  type: "ReLU"
  bottom: "inception_5a/3x3_reduce"
  top: "inception_5a/3x3_reduce"
}
layer {
  name: "inception_5a/3x3"
  type: "Convolution"
  bottom: "inception_5a/3x3_reduce"
  top: "inception_5a/3x3"
  param {
    lr_mult: 1
    decay_mult: 1
  }
  param {
    lr_mult: 2
    decay_mult: 0
  }
  convolution_param {
    num_output: 320
    pad: 1
    kernel_size: 3
    weight_filler {
      type: "xavier"
      std: 0.03
    }
    bias_filler {
      type: "constant"
      value: 0.2
    }
  }
}
layer {
  name: "inception_5a/relu_3x3"
  type: "ReLU"
  bottom: "inception_5a/3x3"
  top: "inception_5a/3x3"
}
layer {
  name: "inception_5a/5x5_reduce"
  type: "Convolution"
  bottom: "pool4/3x3_s2_pool4/3x3_s2_0_split_2"
  top: "inception_5a/5x5_reduce"
  param {
    lr_mult: 1
    decay_mult: 1
  }
  param {
    lr_mult: 2
    decay_mult: 0
  }
  convolution_param {
    num_output: 32
    kernel_size: 1
    weight_filler {
      type: "xavier"
      std: 0.2
    }
    bias_filler {
      type: "constant"
      value: 0.2
    }
  }
}
layer {
  name: "inception_5a/relu_5x5_reduce"
  type: "ReLU"
  bottom: "inception_5a/5x5_reduce"
  top: "inception_5a/5x5_reduce"
}
layer {
  name: "inception_5a/5x5"
  type: "Convolution"
  bottom: "inception_5a/5x5_reduce"
  top: "inception_5a/5x5"
  param {
    lr_mult: 1
    decay_mult: 1
  }
  param {
    lr_mult: 2
    decay_mult: 0
  }
  convolution_param {
    num_output: 128
    pad: 2
    kernel_size: 5
    weight_filler {
      type: "xavier"
      std: 0.03
    }
    bias_filler {
      type: "constant"
      value: 0.2
    }
  }
}
layer {
  name: "inception_5a/relu_5x5"
  type: "ReLU"
  bottom: "inception_5a/5x5"
  top: "inception_5a/5x5"
}
layer {
  name: "inception_5a/pool"
  type: "Pooling"
  bottom: "pool4/3x3_s2_pool4/3x3_s2_0_split_3"
  top: "inception_5a/pool"
  pooling_param {
    pool: MAX
    kernel_size: 3
    stride: 1
    pad: 1
  }
}
layer {
  name: "inception_5a/pool_proj"
  type: "Convolution"
  bottom: "inception_5a/pool"
  top: "inception_5a/pool_proj"
  param {
    lr_mult: 1
    decay_mult: 1
  }
  param {
    lr_mult: 2
    decay_mult: 0
  }
  convolution_param {
    num_output: 128
    kernel_size: 1
    weight_filler {
      type: "xavier"
      std: 0.1
    }
    bias_filler {
      type: "constant"
      value: 0.2
    }
  }
}
layer {
  name: "inception_5a/relu_pool_proj"
  type: "ReLU"
  bottom: "inception_5a/pool_proj"
  top: "inception_5a/pool_proj"
}
layer {
  name: "inception_5a/output"
  type: "Concat"
  bottom: "inception_5a/1x1"
  bottom: "inception_5a/3x3"
  bottom: "inception_5a/5x5"
  bottom: "inception_5a/pool_proj"
  top: "inception_5a/output"
}
layer {
  name: "inception_5a/output_inception_5a/output_0_split"
  type: "Split"
  bottom: "inception_5a/output"
  top: "inception_5a/output_inception_5a/output_0_split_0"
  top: "inception_5a/output_inception_5a/output_0_split_1"
  top: "inception_5a/output_inception_5a/output_0_split_2"
  top: "inception_5a/output_inception_5a/output_0_split_3"
}
layer {
  name: "inception_5b/1x1"
  type: "Convolution"
  bottom: "inception_5a/output_inception_5a/output_0_split_0"
  top: "inception_5b/1x1"
  param {
    lr_mult: 1
    decay_mult: 1
  }
  param {
    lr_mult: 2
    decay_mult: 0
  }
  convolution_param {
    num_output: 384
    kernel_size: 1
    weight_filler {
      type: "xavier"
      std: 0.03
    }
    bias_filler {
      type: "constant"
      value: 0.2
    }
  }
}
layer {
  name: "inception_5b/relu_1x1"
  type: "ReLU"
  bottom: "inception_5b/1x1"
  top: "inception_5b/1x1"
}
layer {
  name: "inception_5b/3x3_reduce"
  type: "Convolution"
  bottom: "inception_5a/output_inception_5a/output_0_split_1"
  top: "inception_5b/3x3_reduce"
  param {
    lr_mult: 1
    decay_mult: 1
  }
  param {
    lr_mult: 2
    decay_mult: 0
  }
  convolution_param {
    num_output: 192
    kernel_size: 1
    weight_filler {
      type: "xavier"
      std: 0.09
    }
    bias_filler {
      type: "constant"
      value: 0.2
    }
  }
}
layer {
  name: "inception_5b/relu_3x3_reduce"
  type: "ReLU"
  bottom: "inception_5b/3x3_reduce"
  top: "inception_5b/3x3_reduce"
}
layer {
  name: "inception_5b/3x3"
  type: "Convolution"
  bottom: "inception_5b/3x3_reduce"
  top: "inception_5b/3x3"
  param {
    lr_mult: 1
    decay_mult: 1
  }
  param {
    lr_mult: 2
    decay_mult: 0
  }
  convolution_param {
    num_output: 384
    pad: 1
    kernel_size: 3
    weight_filler {
      type: "xavier"
      std: 0.03
    }
    bias_filler {
      type: "constant"
      value: 0.2
    }
  }
}
layer {
  name: "inception_5b/relu_3x3"
  type: "ReLU"
  bottom: "inception_5b/3x3"
  top: "inception_5b/3x3"
}
layer {
  name: "inception_5b/5x5_reduce"
  type: "Convolution"
  bottom: "inception_5a/output_inception_5a/output_0_split_2"
  top: "inception_5b/5x5_reduce"
  param {
    lr_mult: 1
    decay_mult: 1
  }
  param {
    lr_mult: 2
    decay_mult: 0
  }
  convolution_param {
    num_output: 48
    kernel_size: 1
    weight_filler {
      type: "xavier"
      std: 0.2
    }
    bias_filler {
      type: "constant"
      value: 0.2
    }
  }
}
layer {
  name: "inception_5b/relu_5x5_reduce"
  type: "ReLU"
  bottom: "inception_5b/5x5_reduce"
  top: "inception_5b/5x5_reduce"
}
layer {
  name: "inception_5b/5x5"
  type: "Convolution"
  bottom: "inception_5b/5x5_reduce"
  top: "inception_5b/5x5"
  param {
    lr_mult: 1
    decay_mult: 1
  }
  param {
    lr_mult: 2
    decay_mult: 0
  }
  convolution_param {
    num_output: 128
    pad: 2
    kernel_size: 5
    weight_filler {
      type: "xavier"
      std: 0.03
    }
    bias_filler {
      type: "constant"
      value: 0.2
    }
  }
}
layer {
  name: "inception_5b/relu_5x5"
  type: "ReLU"
  bottom: "inception_5b/5x5"
  top: "inception_5b/5x5"
}
layer {
  name: "inception_5b/pool"
  type: "Pooling"
  bottom: "inception_5a/output_inception_5a/output_0_split_3"
  top: "inception_5b/pool"
  pooling_param {
    pool: MAX
    kernel_size: 3
    stride: 1
    pad: 1
  }
}
layer {
  name: "inception_5b/pool_proj"
  type: "Convolution"
  bottom: "inception_5b/pool"
  top: "inception_5b/pool_proj"
  param {
    lr_mult: 1
    decay_mult: 1
  }
  param {
    lr_mult: 2
    decay_mult: 0
  }
  convolution_param {
    num_output: 128
    kernel_size: 1
    weight_filler {
      type: "xavier"
      std: 0.1
    }
    bias_filler {
      type: "constant"
      value: 0.2
    }
  }
}
layer {
  name: "inception_5b/relu_pool_proj"
  type: "ReLU"
  bottom: "inception_5b/pool_proj"
  top: "inception_5b/pool_proj"
}
layer {
  name: "inception_5b/output"
  type: "Concat"
  bottom: "inception_5b/1x1"
  bottom: "inception_5b/3x3"
  bottom: "inception_5b/5x5"
  bottom: "inception_5b/pool_proj"
  top: "inception_5b/output"
}
layer {
  name: "pool5/7x7_s1"
  type: "Pooling"
  bottom: "inception_5b/output"
  top: "pool5/7x7_s1"
  pooling_param {
    pool: AVE
    kernel_size: 7
    stride: 1
  }
}
layer {
  name: "pool5/drop_7x7_s1"
  type: "Dropout"
  bottom: "pool5/7x7_s1"
  top: "pool5/7x7_s1"
  dropout_param {
    dropout_ratio: 0.4
  }
}
layer {
  name: "loss3/classifier"
  type: "InnerProduct"
  bottom: "pool5/7x7_s1"
  top: "loss3/classifier"
  param {
    lr_mult: 1
    decay_mult: 1
  }
  param {
    lr_mult: 2
    decay_mult: 0
  }
  inner_product_param {
    num_output: 3
    weight_filler {
      type: "xavier"
    }
    bias_filler {
      type: "constant"
      value: 0
    }
  }
}
layer {
  name: "loss3/classifier_loss3/classifier_0_split"
  type: "Split"
  bottom: "loss3/classifier"
  top: "loss3/classifier_loss3/classifier_0_split_0"
  top: "loss3/classifier_loss3/classifier_0_split_1"
}
layer {
  name: "loss3/loss"
  type: "SoftmaxWithLoss"
  bottom: "loss3/classifier_loss3/classifier_0_split_0"
  bottom: "label_DataColor256_1_split_2"
  top: "loss"
  loss_weight: 1
  exclude {
    stage: "deploy"
  }
}
layer {
  name: "accuracy"
  type: "Accuracy"
  bottom: "loss3/classifier_loss3/classifier_0_split_1"
  bottom: "label_DataColor256_1_split_3"
  top: "accuracy"
}
I0603 04:24:33.443286   822 layer_factory.hpp:114] Creating layer DataColor256
I0603 04:24:33.443928   822 net.cpp:201] Creating Layer DataColor256
I0603 04:24:33.443943   822 net.cpp:876] DataColor256 -> data
I0603 04:24:33.443967   822 net.cpp:876] DataColor256 -> label
W0603 04:24:33.443977   822 net.cpp:265] SetMinibatchSize 32
I0603 04:24:33.444205   822 data_transformer.cpp:63] Loading mean file from: /workspace/dlsdk/jobs/caffe/datasets/d2e5486e-416d-488e-a668-8eeacdf819b5/mean.binaryproto
I0603 04:24:33.448348   825 db_lmdb.cpp:72] Opened lmdb /workspace/dlsdk/jobs/caffe/datasets/d2e5486e-416d-488e-a668-8eeacdf819b5/train.txt_LMDB
I0603 04:24:33.448560   822 data_layer.cpp:80] output data size: 32,3,256,256
I0603 04:24:33.490195   822 net.cpp:286] Setting up DataColor256
I0603 04:24:33.498323   822 net.cpp:293] Top shape: 32 3 256 256 (6291456)
I0603 04:24:33.498477   822 net.cpp:293] Top shape: 32 (32)
I0603 04:24:33.498569   822 net.cpp:301] Memory required for data: 25165952
I0603 04:24:33.498697   822 layer_factory.hpp:114] Creating layer label_DataColor256_1_split
I0603 04:24:33.498888   822 net.cpp:201] Creating Layer label_DataColor256_1_split
I0603 04:24:33.499033   822 net.cpp:902] label_DataColor256_1_split <- label
I0603 04:24:33.499166   822 net.cpp:876] label_DataColor256_1_split -> label_DataColor256_1_split_0
I0603 04:24:33.499372   822 net.cpp:876] label_DataColor256_1_split -> label_DataColor256_1_split_1
I0603 04:24:33.499567   822 net.cpp:876] label_DataColor256_1_split -> label_DataColor256_1_split_2
I0603 04:24:33.499758   822 net.cpp:876] label_DataColor256_1_split -> label_DataColor256_1_split_3
I0603 04:24:33.500788   822 net.cpp:286] Setting up label_DataColor256_1_split
I0603 04:24:33.500850   822 net.cpp:293] Top shape: 32 (32)
I0603 04:24:33.500859   822 net.cpp:293] Top shape: 32 (32)
I0603 04:24:33.500866   822 net.cpp:293] Top shape: 32 (32)
I0603 04:24:33.500872   822 net.cpp:293] Top shape: 32 (32)
I0603 04:24:33.500876   822 net.cpp:301] Memory required for data: 25166464
I0603 04:24:33.500883   822 layer_factory.hpp:114] Creating layer conv1/7x7_s2
I0603 04:24:33.500913   822 net.cpp:201] Creating Layer conv1/7x7_s2
I0603 04:24:33.500921   822 net.cpp:902] conv1/7x7_s2 <- data
I0603 04:24:33.500931   822 net.cpp:876] conv1/7x7_s2 -> conv1/7x7_s2
I0603 04:24:33.513841   822 net.cpp:286] Setting up conv1/7x7_s2
I0603 04:24:33.513872   822 net.cpp:293] Top shape: 32 64 128 128 (33554432)
I0603 04:24:33.513878   822 net.cpp:301] Memory required for data: 159384192
I0603 04:24:33.513900   822 layer_factory.hpp:114] Creating layer conv1/relu_7x7
I0603 04:24:33.513921   822 net.cpp:201] Creating Layer conv1/relu_7x7
I0603 04:24:33.513928   822 net.cpp:902] conv1/relu_7x7 <- conv1/7x7_s2
I0603 04:24:33.513937   822 net.cpp:863] conv1/relu_7x7 -> conv1/7x7_s2 (in-place)
I0603 04:24:33.513964   822 net.cpp:286] Setting up conv1/relu_7x7
I0603 04:24:33.513972   822 net.cpp:293] Top shape: 32 64 128 128 (33554432)
I0603 04:24:33.513977   822 net.cpp:301] Memory required for data: 293601920
I0603 04:24:33.513983   822 layer_factory.hpp:114] Creating layer pool1/3x3_s2
I0603 04:24:33.513998   822 net.cpp:201] Creating Layer pool1/3x3_s2
I0603 04:24:33.514003   822 net.cpp:902] pool1/3x3_s2 <- conv1/7x7_s2
I0603 04:24:33.514010   822 net.cpp:876] pool1/3x3_s2 -> pool1/3x3_s2
I0603 04:24:33.514034   822 net.cpp:286] Setting up pool1/3x3_s2
I0603 04:24:33.514042   822 net.cpp:293] Top shape: 32 64 64 64 (8388608)
I0603 04:24:33.514047   822 net.cpp:301] Memory required for data: 327156352
I0603 04:24:33.514052   822 layer_factory.hpp:114] Creating layer pool1/norm1
I0603 04:24:33.514065   822 net.cpp:201] Creating Layer pool1/norm1
I0603 04:24:33.514071   822 net.cpp:902] pool1/norm1 <- pool1/3x3_s2
I0603 04:24:33.514078   822 net.cpp:876] pool1/norm1 -> pool1/norm1
I0603 04:24:33.514097   822 net.cpp:286] Setting up pool1/norm1
I0603 04:24:33.514106   822 net.cpp:293] Top shape: 32 64 64 64 (8388608)
I0603 04:24:33.514111   822 net.cpp:301] Memory required for data: 360710784
I0603 04:24:33.514116   822 layer_factory.hpp:114] Creating layer conv2/3x3_reduce
I0603 04:24:33.514166   822 net.cpp:201] Creating Layer conv2/3x3_reduce
I0603 04:24:33.514173   822 net.cpp:902] conv2/3x3_reduce <- pool1/norm1
I0603 04:24:33.514183   822 net.cpp:876] conv2/3x3_reduce -> conv2/3x3_reduce
I0603 04:24:33.516448   822 net.cpp:286] Setting up conv2/3x3_reduce
I0603 04:24:33.516469   822 net.cpp:293] Top shape: 32 64 64 64 (8388608)
I0603 04:24:33.516475   822 net.cpp:301] Memory required for data: 394265216
I0603 04:24:33.516490   822 layer_factory.hpp:114] Creating layer conv2/relu_3x3_reduce
I0603 04:24:33.516507   822 net.cpp:201] Creating Layer conv2/relu_3x3_reduce
I0603 04:24:33.516515   822 net.cpp:902] conv2/relu_3x3_reduce <- conv2/3x3_reduce
I0603 04:24:33.516522   822 net.cpp:863] conv2/relu_3x3_reduce -> conv2/3x3_reduce (in-place)
I0603 04:24:33.516544   822 net.cpp:286] Setting up conv2/relu_3x3_reduce
I0603 04:24:33.516552   822 net.cpp:293] Top shape: 32 64 64 64 (8388608)
I0603 04:24:33.516557   822 net.cpp:301] Memory required for data: 427819648
I0603 04:24:33.516562   822 layer_factory.hpp:114] Creating layer conv2/3x3
I0603 04:24:33.516584   822 net.cpp:201] Creating Layer conv2/3x3
I0603 04:24:33.516590   822 net.cpp:902] conv2/3x3 <- conv2/3x3_reduce
I0603 04:24:33.516600   822 net.cpp:876] conv2/3x3 -> conv2/3x3
I0603 04:24:33.524682   822 net.cpp:286] Setting up conv2/3x3
I0603 04:24:33.524704   822 net.cpp:293] Top shape: 32 192 64 64 (25165824)
I0603 04:24:33.524711   822 net.cpp:301] Memory required for data: 528482944
I0603 04:24:33.524726   822 layer_factory.hpp:114] Creating layer conv2/relu_3x3
I0603 04:24:33.524741   822 net.cpp:201] Creating Layer conv2/relu_3x3
I0603 04:24:33.524749   822 net.cpp:902] conv2/relu_3x3 <- conv2/3x3
I0603 04:24:33.524756   822 net.cpp:863] conv2/relu_3x3 -> conv2/3x3 (in-place)
I0603 04:24:33.524777   822 net.cpp:286] Setting up conv2/relu_3x3
I0603 04:24:33.524785   822 net.cpp:293] Top shape: 32 192 64 64 (25165824)
I0603 04:24:33.524790   822 net.cpp:301] Memory required for data: 629146240
I0603 04:24:33.524796   822 layer_factory.hpp:114] Creating layer conv2/norm2
I0603 04:24:33.524806   822 net.cpp:201] Creating Layer conv2/norm2
I0603 04:24:33.524812   822 net.cpp:902] conv2/norm2 <- conv2/3x3
I0603 04:24:33.524819   822 net.cpp:876] conv2/norm2 -> conv2/norm2
I0603 04:24:33.524837   822 net.cpp:286] Setting up conv2/norm2
I0603 04:24:33.524843   822 net.cpp:293] Top shape: 32 192 64 64 (25165824)
I0603 04:24:33.524848   822 net.cpp:301] Memory required for data: 729809536
I0603 04:24:33.524853   822 layer_factory.hpp:114] Creating layer pool2/3x3_s2
I0603 04:24:33.524864   822 net.cpp:201] Creating Layer pool2/3x3_s2
I0603 04:24:33.524869   822 net.cpp:902] pool2/3x3_s2 <- conv2/norm2
I0603 04:24:33.524876   822 net.cpp:876] pool2/3x3_s2 -> pool2/3x3_s2
I0603 04:24:33.524910   822 net.cpp:286] Setting up pool2/3x3_s2
I0603 04:24:33.524919   822 net.cpp:293] Top shape: 32 192 32 32 (6291456)
I0603 04:24:33.524924   822 net.cpp:301] Memory required for data: 754975360
I0603 04:24:33.524930   822 layer_factory.hpp:114] Creating layer pool2/3x3_s2_pool2/3x3_s2_0_split
I0603 04:24:33.524941   822 net.cpp:201] Creating Layer pool2/3x3_s2_pool2/3x3_s2_0_split
I0603 04:24:33.524946   822 net.cpp:902] pool2/3x3_s2_pool2/3x3_s2_0_split <- pool2/3x3_s2
I0603 04:24:33.524955   822 net.cpp:876] pool2/3x3_s2_pool2/3x3_s2_0_split -> pool2/3x3_s2_pool2/3x3_s2_0_split_0
I0603 04:24:33.524963   822 net.cpp:876] pool2/3x3_s2_pool2/3x3_s2_0_split -> pool2/3x3_s2_pool2/3x3_s2_0_split_1
I0603 04:24:33.524971   822 net.cpp:876] pool2/3x3_s2_pool2/3x3_s2_0_split -> pool2/3x3_s2_pool2/3x3_s2_0_split_2
I0603 04:24:33.524981   822 net.cpp:876] pool2/3x3_s2_pool2/3x3_s2_0_split -> pool2/3x3_s2_pool2/3x3_s2_0_split_3
I0603 04:24:33.525005   822 net.cpp:286] Setting up pool2/3x3_s2_pool2/3x3_s2_0_split
I0603 04:24:33.525014   822 net.cpp:293] Top shape: 32 192 32 32 (6291456)
I0603 04:24:33.525022   822 net.cpp:293] Top shape: 32 192 32 32 (6291456)
I0603 04:24:33.525027   822 net.cpp:293] Top shape: 32 192 32 32 (6291456)
I0603 04:24:33.525051   822 net.cpp:293] Top shape: 32 192 32 32 (6291456)
I0603 04:24:33.525056   822 net.cpp:301] Memory required for data: 855638656
I0603 04:24:33.525061   822 layer_factory.hpp:114] Creating layer inception_3a/1x1
I0603 04:24:33.525080   822 net.cpp:201] Creating Layer inception_3a/1x1
I0603 04:24:33.525085   822 net.cpp:902] inception_3a/1x1 <- pool2/3x3_s2_pool2/3x3_s2_0_split_0
I0603 04:24:33.525094   822 net.cpp:876] inception_3a/1x1 -> inception_3a/1x1
I0603 04:24:33.527189   822 net.cpp:286] Setting up inception_3a/1x1
I0603 04:24:33.527204   822 net.cpp:293] Top shape: 32 64 32 32 (2097152)
I0603 04:24:33.527209   822 net.cpp:301] Memory required for data: 864027264
I0603 04:24:33.527221   822 layer_factory.hpp:114] Creating layer inception_3a/relu_1x1
I0603 04:24:33.527235   822 net.cpp:201] Creating Layer inception_3a/relu_1x1
I0603 04:24:33.527240   822 net.cpp:902] inception_3a/relu_1x1 <- inception_3a/1x1
I0603 04:24:33.527248   822 net.cpp:863] inception_3a/relu_1x1 -> inception_3a/1x1 (in-place)
I0603 04:24:33.527268   822 net.cpp:286] Setting up inception_3a/relu_1x1
I0603 04:24:33.527276   822 net.cpp:293] Top shape: 32 64 32 32 (2097152)
I0603 04:24:33.527281   822 net.cpp:301] Memory required for data: 872415872
I0603 04:24:33.527287   822 layer_factory.hpp:114] Creating layer inception_3a/3x3_reduce
I0603 04:24:33.527304   822 net.cpp:201] Creating Layer inception_3a/3x3_reduce
I0603 04:24:33.527310   822 net.cpp:902] inception_3a/3x3_reduce <- pool2/3x3_s2_pool2/3x3_s2_0_split_1
I0603 04:24:33.527321   822 net.cpp:876] inception_3a/3x3_reduce -> inception_3a/3x3_reduce
I0603 04:24:33.529588   822 net.cpp:286] Setting up inception_3a/3x3_reduce
I0603 04:24:33.529604   822 net.cpp:293] Top shape: 32 96 32 32 (3145728)
I0603 04:24:33.529609   822 net.cpp:301] Memory required for data: 884998784
I0603 04:24:33.529623   822 layer_factory.hpp:114] Creating layer inception_3a/relu_3x3_reduce
I0603 04:24:33.529641   822 net.cpp:201] Creating Layer inception_3a/relu_3x3_reduce
I0603 04:24:33.529647   822 net.cpp:902] inception_3a/relu_3x3_reduce <- inception_3a/3x3_reduce
I0603 04:24:33.529657   822 net.cpp:863] inception_3a/relu_3x3_reduce -> inception_3a/3x3_reduce (in-place)
I0603 04:24:33.529680   822 net.cpp:286] Setting up inception_3a/relu_3x3_reduce
I0603 04:24:33.529687   822 net.cpp:293] Top shape: 32 96 32 32 (3145728)
I0603 04:24:33.529692   822 net.cpp:301] Memory required for data: 897581696
I0603 04:24:33.529698   822 layer_factory.hpp:114] Creating layer inception_3a/3x3
I0603 04:24:33.529721   822 net.cpp:201] Creating Layer inception_3a/3x3
I0603 04:24:33.529726   822 net.cpp:902] inception_3a/3x3 <- inception_3a/3x3_reduce
I0603 04:24:33.529734   822 net.cpp:876] inception_3a/3x3 -> inception_3a/3x3
I0603 04:24:33.534471   822 net.cpp:286] Setting up inception_3a/3x3
I0603 04:24:33.534492   822 net.cpp:293] Top shape: 32 128 32 32 (4194304)
I0603 04:24:33.534498   822 net.cpp:301] Memory required for data: 914358912
I0603 04:24:33.534509   822 layer_factory.hpp:114] Creating layer inception_3a/relu_3x3
I0603 04:24:33.534523   822 net.cpp:201] Creating Layer inception_3a/relu_3x3
I0603 04:24:33.534530   822 net.cpp:902] inception_3a/relu_3x3 <- inception_3a/3x3
I0603 04:24:33.534538   822 net.cpp:863] inception_3a/relu_3x3 -> inception_3a/3x3 (in-place)
I0603 04:24:33.534559   822 net.cpp:286] Setting up inception_3a/relu_3x3
I0603 04:24:33.534566   822 net.cpp:293] Top shape: 32 128 32 32 (4194304)
I0603 04:24:33.534571   822 net.cpp:301] Memory required for data: 931136128
I0603 04:24:33.534576   822 layer_factory.hpp:114] Creating layer inception_3a/5x5_reduce
I0603 04:24:33.534595   822 net.cpp:201] Creating Layer inception_3a/5x5_reduce
I0603 04:24:33.534600   822 net.cpp:902] inception_3a/5x5_reduce <- pool2/3x3_s2_pool2/3x3_s2_0_split_2
I0603 04:24:33.534610   822 net.cpp:876] inception_3a/5x5_reduce -> inception_3a/5x5_reduce
I0603 04:24:33.536366   822 net.cpp:286] Setting up inception_3a/5x5_reduce
I0603 04:24:33.536388   822 net.cpp:293] Top shape: 32 16 32 32 (524288)
I0603 04:24:33.536412   822 net.cpp:301] Memory required for data: 933233280
I0603 04:24:33.536424   822 layer_factory.hpp:114] Creating layer inception_3a/relu_5x5_reduce
I0603 04:24:33.536437   822 net.cpp:201] Creating Layer inception_3a/relu_5x5_reduce
I0603 04:24:33.536444   822 net.cpp:902] inception_3a/relu_5x5_reduce <- inception_3a/5x5_reduce
I0603 04:24:33.536453   822 net.cpp:863] inception_3a/relu_5x5_reduce -> inception_3a/5x5_reduce (in-place)
I0603 04:24:33.536471   822 net.cpp:286] Setting up inception_3a/relu_5x5_reduce
I0603 04:24:33.536479   822 net.cpp:293] Top shape: 32 16 32 32 (524288)
I0603 04:24:33.536484   822 net.cpp:301] Memory required for data: 935330432
I0603 04:24:33.536489   822 layer_factory.hpp:114] Creating layer inception_3a/5x5
I0603 04:24:33.536515   822 net.cpp:201] Creating Layer inception_3a/5x5
I0603 04:24:33.536522   822 net.cpp:902] inception_3a/5x5 <- inception_3a/5x5_reduce
I0603 04:24:33.536533   822 net.cpp:876] inception_3a/5x5 -> inception_3a/5x5
I0603 04:24:33.538900   822 net.cpp:286] Setting up inception_3a/5x5
I0603 04:24:33.538923   822 net.cpp:293] Top shape: 32 32 32 32 (1048576)
I0603 04:24:33.538930   822 net.cpp:301] Memory required for data: 939524736
I0603 04:24:33.538942   822 layer_factory.hpp:114] Creating layer inception_3a/relu_5x5
I0603 04:24:33.538957   822 net.cpp:201] Creating Layer inception_3a/relu_5x5
I0603 04:24:33.538964   822 net.cpp:902] inception_3a/relu_5x5 <- inception_3a/5x5
I0603 04:24:33.538972   822 net.cpp:863] inception_3a/relu_5x5 -> inception_3a/5x5 (in-place)
I0603 04:24:33.538993   822 net.cpp:286] Setting up inception_3a/relu_5x5
I0603 04:24:33.539001   822 net.cpp:293] Top shape: 32 32 32 32 (1048576)
I0603 04:24:33.539006   822 net.cpp:301] Memory required for data: 943719040
I0603 04:24:33.539011   822 layer_factory.hpp:114] Creating layer inception_3a/pool
I0603 04:24:33.539023   822 net.cpp:201] Creating Layer inception_3a/pool
I0603 04:24:33.539029   822 net.cpp:902] inception_3a/pool <- pool2/3x3_s2_pool2/3x3_s2_0_split_3
I0603 04:24:33.539037   822 net.cpp:876] inception_3a/pool -> inception_3a/pool
I0603 04:24:33.539062   822 net.cpp:286] Setting up inception_3a/pool
I0603 04:24:33.539068   822 net.cpp:293] Top shape: 32 192 32 32 (6291456)
I0603 04:24:33.539073   822 net.cpp:301] Memory required for data: 968884864
I0603 04:24:33.539078   822 layer_factory.hpp:114] Creating layer inception_3a/pool_proj
I0603 04:24:33.539095   822 net.cpp:201] Creating Layer inception_3a/pool_proj
I0603 04:24:33.539101   822 net.cpp:902] inception_3a/pool_proj <- inception_3a/pool
I0603 04:24:33.539110   822 net.cpp:876] inception_3a/pool_proj -> inception_3a/pool_proj
I0603 04:24:33.541110   822 net.cpp:286] Setting up inception_3a/pool_proj
I0603 04:24:33.541131   822 net.cpp:293] Top shape: 32 32 32 32 (1048576)
I0603 04:24:33.541137   822 net.cpp:301] Memory required for data: 973079168
I0603 04:24:33.541153   822 layer_factory.hpp:114] Creating layer inception_3a/relu_pool_proj
I0603 04:24:33.541167   822 net.cpp:201] Creating Layer inception_3a/relu_pool_proj
I0603 04:24:33.541174   822 net.cpp:902] inception_3a/relu_pool_proj <- inception_3a/pool_proj
I0603 04:24:33.541182   822 net.cpp:863] inception_3a/relu_pool_proj -> inception_3a/pool_proj (in-place)
I0603 04:24:33.541201   822 net.cpp:286] Setting up inception_3a/relu_pool_proj
I0603 04:24:33.541209   822 net.cpp:293] Top shape: 32 32 32 32 (1048576)
I0603 04:24:33.541214   822 net.cpp:301] Memory required for data: 977273472
I0603 04:24:33.541219   822 layer_factory.hpp:114] Creating layer inception_3a/output
I0603 04:24:33.541231   822 net.cpp:201] Creating Layer inception_3a/output
I0603 04:24:33.541236   822 net.cpp:902] inception_3a/output <- inception_3a/1x1
I0603 04:24:33.541242   822 net.cpp:902] inception_3a/output <- inception_3a/3x3
I0603 04:24:33.541249   822 net.cpp:902] inception_3a/output <- inception_3a/5x5
I0603 04:24:33.541255   822 net.cpp:902] inception_3a/output <- inception_3a/pool_proj
I0603 04:24:33.541262   822 net.cpp:876] inception_3a/output -> inception_3a/output
I0603 04:24:33.541327   822 net.cpp:286] Setting up inception_3a/output
I0603 04:24:33.541338   822 net.cpp:293] Top shape: 32 256 32 32 (8388608)
I0603 04:24:33.541343   822 net.cpp:301] Memory required for data: 1010827904
I0603 04:24:33.541349   822 layer_factory.hpp:114] Creating layer inception_3a/output_inception_3a/output_0_split
I0603 04:24:33.541359   822 net.cpp:201] Creating Layer inception_3a/output_inception_3a/output_0_split
I0603 04:24:33.541365   822 net.cpp:902] inception_3a/output_inception_3a/output_0_split <- inception_3a/output
I0603 04:24:33.541373   822 net.cpp:876] inception_3a/output_inception_3a/output_0_split -> inception_3a/output_inception_3a/output_0_split_0
I0603 04:24:33.541383   822 net.cpp:876] inception_3a/output_inception_3a/output_0_split -> inception_3a/output_inception_3a/output_0_split_1
I0603 04:24:33.541390   822 net.cpp:876] inception_3a/output_inception_3a/output_0_split -> inception_3a/output_inception_3a/output_0_split_2
I0603 04:24:33.541399   822 net.cpp:876] inception_3a/output_inception_3a/output_0_split -> inception_3a/output_inception_3a/output_0_split_3
I0603 04:24:33.541425   822 net.cpp:286] Setting up inception_3a/output_inception_3a/output_0_split
I0603 04:24:33.541435   822 net.cpp:293] Top shape: 32 256 32 32 (8388608)
I0603 04:24:33.541441   822 net.cpp:293] Top shape: 32 256 32 32 (8388608)
I0603 04:24:33.541447   822 net.cpp:293] Top shape: 32 256 32 32 (8388608)
I0603 04:24:33.541453   822 net.cpp:293] Top shape: 32 256 32 32 (8388608)
I0603 04:24:33.541458   822 net.cpp:301] Memory required for data: 1145045632
I0603 04:24:33.541463   822 layer_factory.hpp:114] Creating layer inception_3b/1x1
I0603 04:24:33.541487   822 net.cpp:201] Creating Layer inception_3b/1x1
I0603 04:24:33.541493   822 net.cpp:902] inception_3b/1x1 <- inception_3a/output_inception_3a/output_0_split_0
I0603 04:24:33.541502   822 net.cpp:876] inception_3b/1x1 -> inception_3b/1x1
I0603 04:24:33.544378   822 net.cpp:286] Setting up inception_3b/1x1
I0603 04:24:33.544392   822 net.cpp:293] Top shape: 32 128 32 32 (4194304)
I0603 04:24:33.544399   822 net.cpp:301] Memory required for data: 1161822848
I0603 04:24:33.544409   822 layer_factory.hpp:114] Creating layer inception_3b/relu_1x1
I0603 04:24:33.544425   822 net.cpp:201] Creating Layer inception_3b/relu_1x1
I0603 04:24:33.544431   822 net.cpp:902] inception_3b/relu_1x1 <- inception_3b/1x1
I0603 04:24:33.544440   822 net.cpp:863] inception_3b/relu_1x1 -> inception_3b/1x1 (in-place)
I0603 04:24:33.544464   822 net.cpp:286] Setting up inception_3b/relu_1x1
I0603 04:24:33.544472   822 net.cpp:293] Top shape: 32 128 32 32 (4194304)
I0603 04:24:33.544477   822 net.cpp:301] Memory required for data: 1178600064
I0603 04:24:33.544482   822 layer_factory.hpp:114] Creating layer inception_3b/3x3_reduce
I0603 04:24:33.544503   822 net.cpp:201] Creating Layer inception_3b/3x3_reduce
I0603 04:24:33.544509   822 net.cpp:902] inception_3b/3x3_reduce <- inception_3a/output_inception_3a/output_0_split_1
I0603 04:24:33.544519   822 net.cpp:876] inception_3b/3x3_reduce -> inception_3b/3x3_reduce
I0603 04:24:33.547245   822 net.cpp:286] Setting up inception_3b/3x3_reduce
I0603 04:24:33.547267   822 net.cpp:293] Top shape: 32 128 32 32 (4194304)
I0603 04:24:33.547273   822 net.cpp:301] Memory required for data: 1195377280
I0603 04:24:33.547286   822 layer_factory.hpp:114] Creating layer inception_3b/relu_3x3_reduce
I0603 04:24:33.547303   822 net.cpp:201] Creating Layer inception_3b/relu_3x3_reduce
I0603 04:24:33.547310   822 net.cpp:902] inception_3b/relu_3x3_reduce <- inception_3b/3x3_reduce
I0603 04:24:33.547319   822 net.cpp:863] inception_3b/relu_3x3_reduce -> inception_3b/3x3_reduce (in-place)
I0603 04:24:33.547344   822 net.cpp:286] Setting up inception_3b/relu_3x3_reduce
I0603 04:24:33.547353   822 net.cpp:293] Top shape: 32 128 32 32 (4194304)
I0603 04:24:33.547358   822 net.cpp:301] Memory required for data: 1212154496
I0603 04:24:33.547363   822 layer_factory.hpp:114] Creating layer inception_3b/3x3
I0603 04:24:33.547406   822 net.cpp:201] Creating Layer inception_3b/3x3
I0603 04:24:33.547413   822 net.cpp:902] inception_3b/3x3 <- inception_3b/3x3_reduce
I0603 04:24:33.547422   822 net.cpp:876] inception_3b/3x3 -> inception_3b/3x3
I0603 04:24:33.554532   822 net.cpp:286] Setting up inception_3b/3x3
I0603 04:24:33.554553   822 net.cpp:293] Top shape: 32 192 32 32 (6291456)
I0603 04:24:33.554558   822 net.cpp:301] Memory required for data: 1237320320
I0603 04:24:33.554570   822 layer_factory.hpp:114] Creating layer inception_3b/relu_3x3
I0603 04:24:33.554584   822 net.cpp:201] Creating Layer inception_3b/relu_3x3
I0603 04:24:33.554591   822 net.cpp:902] inception_3b/relu_3x3 <- inception_3b/3x3
I0603 04:24:33.554600   822 net.cpp:863] inception_3b/relu_3x3 -> inception_3b/3x3 (in-place)
I0603 04:24:33.554620   822 net.cpp:286] Setting up inception_3b/relu_3x3
I0603 04:24:33.554628   822 net.cpp:293] Top shape: 32 192 32 32 (6291456)
I0603 04:24:33.554633   822 net.cpp:301] Memory required for data: 1262486144
I0603 04:24:33.554638   822 layer_factory.hpp:114] Creating layer inception_3b/5x5_reduce
I0603 04:24:33.554656   822 net.cpp:201] Creating Layer inception_3b/5x5_reduce
I0603 04:24:33.554662   822 net.cpp:902] inception_3b/5x5_reduce <- inception_3a/output_inception_3a/output_0_split_2
I0603 04:24:33.554672   822 net.cpp:876] inception_3b/5x5_reduce -> inception_3b/5x5_reduce
I0603 04:24:33.556707   822 net.cpp:286] Setting up inception_3b/5x5_reduce
I0603 04:24:33.556730   822 net.cpp:293] Top shape: 32 32 32 32 (1048576)
I0603 04:24:33.556736   822 net.cpp:301] Memory required for data: 1266680448
I0603 04:24:33.556748   822 layer_factory.hpp:114] Creating layer inception_3b/relu_5x5_reduce
I0603 04:24:33.556762   822 net.cpp:201] Creating Layer inception_3b/relu_5x5_reduce
I0603 04:24:33.556771   822 net.cpp:902] inception_3b/relu_5x5_reduce <- inception_3b/5x5_reduce
I0603 04:24:33.556778   822 net.cpp:863] inception_3b/relu_5x5_reduce -> inception_3b/5x5_reduce (in-place)
I0603 04:24:33.556800   822 net.cpp:286] Setting up inception_3b/relu_5x5_reduce
I0603 04:24:33.556809   822 net.cpp:293] Top shape: 32 32 32 32 (1048576)
I0603 04:24:33.556814   822 net.cpp:301] Memory required for data: 1270874752
I0603 04:24:33.556819   822 layer_factory.hpp:114] Creating layer inception_3b/5x5
I0603 04:24:33.556838   822 net.cpp:201] Creating Layer inception_3b/5x5
I0603 04:24:33.556843   822 net.cpp:902] inception_3b/5x5 <- inception_3b/5x5_reduce
I0603 04:24:33.556851   822 net.cpp:876] inception_3b/5x5 -> inception_3b/5x5
I0603 04:24:33.561182   822 net.cpp:286] Setting up inception_3b/5x5
I0603 04:24:33.561203   822 net.cpp:293] Top shape: 32 96 32 32 (3145728)
I0603 04:24:33.561210   822 net.cpp:301] Memory required for data: 1283457664
I0603 04:24:33.561223   822 layer_factory.hpp:114] Creating layer inception_3b/relu_5x5
I0603 04:24:33.561236   822 net.cpp:201] Creating Layer inception_3b/relu_5x5
I0603 04:24:33.561244   822 net.cpp:902] inception_3b/relu_5x5 <- inception_3b/5x5
I0603 04:24:33.561252   822 net.cpp:863] inception_3b/relu_5x5 -> inception_3b/5x5 (in-place)
I0603 04:24:33.561272   822 net.cpp:286] Setting up inception_3b/relu_5x5
I0603 04:24:33.561280   822 net.cpp:293] Top shape: 32 96 32 32 (3145728)
I0603 04:24:33.561285   822 net.cpp:301] Memory required for data: 1296040576
I0603 04:24:33.561290   822 layer_factory.hpp:114] Creating layer inception_3b/pool
I0603 04:24:33.561302   822 net.cpp:201] Creating Layer inception_3b/pool
I0603 04:24:33.561308   822 net.cpp:902] inception_3b/pool <- inception_3a/output_inception_3a/output_0_split_3
I0603 04:24:33.561316   822 net.cpp:876] inception_3b/pool -> inception_3b/pool
I0603 04:24:33.561336   822 net.cpp:286] Setting up inception_3b/pool
I0603 04:24:33.561343   822 net.cpp:293] Top shape: 32 256 32 32 (8388608)
I0603 04:24:33.561348   822 net.cpp:301] Memory required for data: 1329595008
I0603 04:24:33.561353   822 layer_factory.hpp:114] Creating layer inception_3b/pool_proj
I0603 04:24:33.561372   822 net.cpp:201] Creating Layer inception_3b/pool_proj
I0603 04:24:33.561394   822 net.cpp:902] inception_3b/pool_proj <- inception_3b/pool
I0603 04:24:33.561403   822 net.cpp:876] inception_3b/pool_proj -> inception_3b/pool_proj
I0603 04:24:33.563724   822 net.cpp:286] Setting up inception_3b/pool_proj
I0603 04:24:33.563746   822 net.cpp:293] Top shape: 32 64 32 32 (2097152)
I0603 04:24:33.563752   822 net.cpp:301] Memory required for data: 1337983616
I0603 04:24:33.563763   822 layer_factory.hpp:114] Creating layer inception_3b/relu_pool_proj
I0603 04:24:33.563781   822 net.cpp:201] Creating Layer inception_3b/relu_pool_proj
I0603 04:24:33.563789   822 net.cpp:902] inception_3b/relu_pool_proj <- inception_3b/pool_proj
I0603 04:24:33.563797   822 net.cpp:863] inception_3b/relu_pool_proj -> inception_3b/pool_proj (in-place)
I0603 04:24:33.563827   822 net.cpp:286] Setting up inception_3b/relu_pool_proj
I0603 04:24:33.563833   822 net.cpp:293] Top shape: 32 64 32 32 (2097152)
I0603 04:24:33.563838   822 net.cpp:301] Memory required for data: 1346372224
I0603 04:24:33.563844   822 layer_factory.hpp:114] Creating layer inception_3b/output
I0603 04:24:33.563858   822 net.cpp:201] Creating Layer inception_3b/output
I0603 04:24:33.563863   822 net.cpp:902] inception_3b/output <- inception_3b/1x1
I0603 04:24:33.563869   822 net.cpp:902] inception_3b/output <- inception_3b/3x3
I0603 04:24:33.563876   822 net.cpp:902] inception_3b/output <- inception_3b/5x5
I0603 04:24:33.563882   822 net.cpp:902] inception_3b/output <- inception_3b/pool_proj
I0603 04:24:33.563889   822 net.cpp:876] inception_3b/output -> inception_3b/output
I0603 04:24:33.563932   822 net.cpp:286] Setting up inception_3b/output
I0603 04:24:33.563941   822 net.cpp:293] Top shape: 32 480 32 32 (15728640)
I0603 04:24:33.563946   822 net.cpp:301] Memory required for data: 1409286784
I0603 04:24:33.563951   822 layer_factory.hpp:114] Creating layer pool3/3x3_s2
I0603 04:24:33.563966   822 net.cpp:201] Creating Layer pool3/3x3_s2
I0603 04:24:33.563971   822 net.cpp:902] pool3/3x3_s2 <- inception_3b/output
I0603 04:24:33.563978   822 net.cpp:876] pool3/3x3_s2 -> pool3/3x3_s2
I0603 04:24:33.563997   822 net.cpp:286] Setting up pool3/3x3_s2
I0603 04:24:33.564004   822 net.cpp:293] Top shape: 32 480 16 16 (3932160)
I0603 04:24:33.564009   822 net.cpp:301] Memory required for data: 1425015424
I0603 04:24:33.564014   822 layer_factory.hpp:114] Creating layer pool3/3x3_s2_pool3/3x3_s2_0_split
I0603 04:24:33.564025   822 net.cpp:201] Creating Layer pool3/3x3_s2_pool3/3x3_s2_0_split
I0603 04:24:33.564031   822 net.cpp:902] pool3/3x3_s2_pool3/3x3_s2_0_split <- pool3/3x3_s2
I0603 04:24:33.564039   822 net.cpp:876] pool3/3x3_s2_pool3/3x3_s2_0_split -> pool3/3x3_s2_pool3/3x3_s2_0_split_0
I0603 04:24:33.564049   822 net.cpp:876] pool3/3x3_s2_pool3/3x3_s2_0_split -> pool3/3x3_s2_pool3/3x3_s2_0_split_1
I0603 04:24:33.564059   822 net.cpp:876] pool3/3x3_s2_pool3/3x3_s2_0_split -> pool3/3x3_s2_pool3/3x3_s2_0_split_2
I0603 04:24:33.564069   822 net.cpp:876] pool3/3x3_s2_pool3/3x3_s2_0_split -> pool3/3x3_s2_pool3/3x3_s2_0_split_3
I0603 04:24:33.564090   822 net.cpp:286] Setting up pool3/3x3_s2_pool3/3x3_s2_0_split
I0603 04:24:33.564097   822 net.cpp:293] Top shape: 32 480 16 16 (3932160)
I0603 04:24:33.564105   822 net.cpp:293] Top shape: 32 480 16 16 (3932160)
I0603 04:24:33.564110   822 net.cpp:293] Top shape: 32 480 16 16 (3932160)
I0603 04:24:33.564116   822 net.cpp:293] Top shape: 32 480 16 16 (3932160)
I0603 04:24:33.564121   822 net.cpp:301] Memory required for data: 1487929984
I0603 04:24:33.564126   822 layer_factory.hpp:114] Creating layer inception_4a/1x1
I0603 04:24:33.564143   822 net.cpp:201] Creating Layer inception_4a/1x1
I0603 04:24:33.564149   822 net.cpp:902] inception_4a/1x1 <- pool3/3x3_s2_pool3/3x3_s2_0_split_0
I0603 04:24:33.564158   822 net.cpp:876] inception_4a/1x1 -> inception_4a/1x1
I0603 04:24:33.567569   822 net.cpp:286] Setting up inception_4a/1x1
I0603 04:24:33.567584   822 net.cpp:293] Top shape: 32 192 16 16 (1572864)
I0603 04:24:33.567589   822 net.cpp:301] Memory required for data: 1494221440
I0603 04:24:33.567615   822 layer_factory.hpp:114] Creating layer inception_4a/relu_1x1
I0603 04:24:33.567631   822 net.cpp:201] Creating Layer inception_4a/relu_1x1
I0603 04:24:33.567638   822 net.cpp:902] inception_4a/relu_1x1 <- inception_4a/1x1
I0603 04:24:33.567646   822 net.cpp:863] inception_4a/relu_1x1 -> inception_4a/1x1 (in-place)
I0603 04:24:33.567669   822 net.cpp:286] Setting up inception_4a/relu_1x1
I0603 04:24:33.567677   822 net.cpp:293] Top shape: 32 192 16 16 (1572864)
I0603 04:24:33.567682   822 net.cpp:301] Memory required for data: 1500512896
I0603 04:24:33.567687   822 layer_factory.hpp:114] Creating layer inception_4a/3x3_reduce
I0603 04:24:33.567713   822 net.cpp:201] Creating Layer inception_4a/3x3_reduce
I0603 04:24:33.567719   822 net.cpp:902] inception_4a/3x3_reduce <- pool3/3x3_s2_pool3/3x3_s2_0_split_1
I0603 04:24:33.567729   822 net.cpp:876] inception_4a/3x3_reduce -> inception_4a/3x3_reduce
I0603 04:24:33.570026   822 net.cpp:286] Setting up inception_4a/3x3_reduce
I0603 04:24:33.570047   822 net.cpp:293] Top shape: 32 96 16 16 (786432)
I0603 04:24:33.570055   822 net.cpp:301] Memory required for data: 1503658624
I0603 04:24:33.570071   822 layer_factory.hpp:114] Creating layer inception_4a/relu_3x3_reduce
I0603 04:24:33.570089   822 net.cpp:201] Creating Layer inception_4a/relu_3x3_reduce
I0603 04:24:33.570096   822 net.cpp:902] inception_4a/relu_3x3_reduce <- inception_4a/3x3_reduce
I0603 04:24:33.570106   822 net.cpp:863] inception_4a/relu_3x3_reduce -> inception_4a/3x3_reduce (in-place)
I0603 04:24:33.570132   822 net.cpp:286] Setting up inception_4a/relu_3x3_reduce
I0603 04:24:33.570140   822 net.cpp:293] Top shape: 32 96 16 16 (786432)
I0603 04:24:33.570145   822 net.cpp:301] Memory required for data: 1506804352
I0603 04:24:33.570152   822 layer_factory.hpp:114] Creating layer inception_4a/3x3
I0603 04:24:33.570173   822 net.cpp:201] Creating Layer inception_4a/3x3
I0603 04:24:33.570179   822 net.cpp:902] inception_4a/3x3 <- inception_4a/3x3_reduce
I0603 04:24:33.570188   822 net.cpp:876] inception_4a/3x3 -> inception_4a/3x3
I0603 04:24:33.574362   822 net.cpp:286] Setting up inception_4a/3x3
I0603 04:24:33.574383   822 net.cpp:293] Top shape: 32 208 16 16 (1703936)
I0603 04:24:33.574389   822 net.cpp:301] Memory required for data: 1513620096
I0603 04:24:33.574401   822 layer_factory.hpp:114] Creating layer inception_4a/relu_3x3
I0603 04:24:33.574415   822 net.cpp:201] Creating Layer inception_4a/relu_3x3
I0603 04:24:33.574422   822 net.cpp:902] inception_4a/relu_3x3 <- inception_4a/3x3
I0603 04:24:33.574430   822 net.cpp:863] inception_4a/relu_3x3 -> inception_4a/3x3 (in-place)
I0603 04:24:33.574451   822 net.cpp:286] Setting up inception_4a/relu_3x3
I0603 04:24:33.574458   822 net.cpp:293] Top shape: 32 208 16 16 (1703936)
I0603 04:24:33.574463   822 net.cpp:301] Memory required for data: 1520435840
I0603 04:24:33.574470   822 layer_factory.hpp:114] Creating layer inception_4a/5x5_reduce
I0603 04:24:33.574486   822 net.cpp:201] Creating Layer inception_4a/5x5_reduce
I0603 04:24:33.574492   822 net.cpp:902] inception_4a/5x5_reduce <- pool3/3x3_s2_pool3/3x3_s2_0_split_2
I0603 04:24:33.574501   822 net.cpp:876] inception_4a/5x5_reduce -> inception_4a/5x5_reduce
I0603 04:24:33.576019   822 net.cpp:286] Setting up inception_4a/5x5_reduce
I0603 04:24:33.576040   822 net.cpp:293] Top shape: 32 16 16 16 (131072)
I0603 04:24:33.576046   822 net.cpp:301] Memory required for data: 1520960128
I0603 04:24:33.576057   822 layer_factory.hpp:114] Creating layer inception_4a/relu_5x5_reduce
I0603 04:24:33.576071   822 net.cpp:201] Creating Layer inception_4a/relu_5x5_reduce
I0603 04:24:33.576079   822 net.cpp:902] inception_4a/relu_5x5_reduce <- inception_4a/5x5_reduce
I0603 04:24:33.576087   822 net.cpp:863] inception_4a/relu_5x5_reduce -> inception_4a/5x5_reduce (in-place)
I0603 04:24:33.576107   822 net.cpp:286] Setting up inception_4a/relu_5x5_reduce
I0603 04:24:33.576114   822 net.cpp:293] Top shape: 32 16 16 16 (131072)
I0603 04:24:33.576119   822 net.cpp:301] Memory required for data: 1521484416
I0603 04:24:33.576143   822 layer_factory.hpp:114] Creating layer inception_4a/5x5
I0603 04:24:33.576161   822 net.cpp:201] Creating Layer inception_4a/5x5
I0603 04:24:33.576169   822 net.cpp:902] inception_4a/5x5 <- inception_4a/5x5_reduce
I0603 04:24:33.576176   822 net.cpp:876] inception_4a/5x5 -> inception_4a/5x5
I0603 04:24:33.577925   822 net.cpp:286] Setting up inception_4a/5x5
I0603 04:24:33.577946   822 net.cpp:293] Top shape: 32 48 16 16 (393216)
I0603 04:24:33.577952   822 net.cpp:301] Memory required for data: 1523057280
I0603 04:24:33.577963   822 layer_factory.hpp:114] Creating layer inception_4a/relu_5x5
I0603 04:24:33.577978   822 net.cpp:201] Creating Layer inception_4a/relu_5x5
I0603 04:24:33.577986   822 net.cpp:902] inception_4a/relu_5x5 <- inception_4a/5x5
I0603 04:24:33.577993   822 net.cpp:863] inception_4a/relu_5x5 -> inception_4a/5x5 (in-place)
I0603 04:24:33.578013   822 net.cpp:286] Setting up inception_4a/relu_5x5
I0603 04:24:33.578022   822 net.cpp:293] Top shape: 32 48 16 16 (393216)
I0603 04:24:33.578027   822 net.cpp:301] Memory required for data: 1524630144
I0603 04:24:33.578032   822 layer_factory.hpp:114] Creating layer inception_4a/pool
I0603 04:24:33.578042   822 net.cpp:201] Creating Layer inception_4a/pool
I0603 04:24:33.578048   822 net.cpp:902] inception_4a/pool <- pool3/3x3_s2_pool3/3x3_s2_0_split_3
I0603 04:24:33.578057   822 net.cpp:876] inception_4a/pool -> inception_4a/pool
I0603 04:24:33.578080   822 net.cpp:286] Setting up inception_4a/pool
I0603 04:24:33.578088   822 net.cpp:293] Top shape: 32 480 16 16 (3932160)
I0603 04:24:33.578094   822 net.cpp:301] Memory required for data: 1540358784
I0603 04:24:33.578099   822 layer_factory.hpp:114] Creating layer inception_4a/pool_proj
I0603 04:24:33.578115   822 net.cpp:201] Creating Layer inception_4a/pool_proj
I0603 04:24:33.578121   822 net.cpp:902] inception_4a/pool_proj <- inception_4a/pool
I0603 04:24:33.578130   822 net.cpp:876] inception_4a/pool_proj -> inception_4a/pool_proj
I0603 04:24:33.580246   822 net.cpp:286] Setting up inception_4a/pool_proj
I0603 04:24:33.580268   822 net.cpp:293] Top shape: 32 64 16 16 (524288)
I0603 04:24:33.580274   822 net.cpp:301] Memory required for data: 1542455936
I0603 04:24:33.580286   822 layer_factory.hpp:114] Creating layer inception_4a/relu_pool_proj
I0603 04:24:33.580303   822 net.cpp:201] Creating Layer inception_4a/relu_pool_proj
I0603 04:24:33.580312   822 net.cpp:902] inception_4a/relu_pool_proj <- inception_4a/pool_proj
I0603 04:24:33.580322   822 net.cpp:863] inception_4a/relu_pool_proj -> inception_4a/pool_proj (in-place)
I0603 04:24:33.580345   822 net.cpp:286] Setting up inception_4a/relu_pool_proj
I0603 04:24:33.580353   822 net.cpp:293] Top shape: 32 64 16 16 (524288)
I0603 04:24:33.580358   822 net.cpp:301] Memory required for data: 1544553088
I0603 04:24:33.580364   822 layer_factory.hpp:114] Creating layer inception_4a/output
I0603 04:24:33.580377   822 net.cpp:201] Creating Layer inception_4a/output
I0603 04:24:33.580384   822 net.cpp:902] inception_4a/output <- inception_4a/1x1
I0603 04:24:33.580390   822 net.cpp:902] inception_4a/output <- inception_4a/3x3
I0603 04:24:33.580396   822 net.cpp:902] inception_4a/output <- inception_4a/5x5
I0603 04:24:33.580402   822 net.cpp:902] inception_4a/output <- inception_4a/pool_proj
I0603 04:24:33.580410   822 net.cpp:876] inception_4a/output -> inception_4a/output
I0603 04:24:33.580457   822 net.cpp:286] Setting up inception_4a/output
I0603 04:24:33.580466   822 net.cpp:293] Top shape: 32 512 16 16 (4194304)
I0603 04:24:33.580471   822 net.cpp:301] Memory required for data: 1561330304
I0603 04:24:33.580476   822 layer_factory.hpp:114] Creating layer inception_4a/output_inception_4a/output_0_split
I0603 04:24:33.580487   822 net.cpp:201] Creating Layer inception_4a/output_inception_4a/output_0_split
I0603 04:24:33.580492   822 net.cpp:902] inception_4a/output_inception_4a/output_0_split <- inception_4a/output
I0603 04:24:33.580503   822 net.cpp:876] inception_4a/output_inception_4a/output_0_split -> inception_4a/output_inception_4a/output_0_split_0
I0603 04:24:33.580528   822 net.cpp:876] inception_4a/output_inception_4a/output_0_split -> inception_4a/output_inception_4a/output_0_split_1
I0603 04:24:33.580538   822 net.cpp:876] inception_4a/output_inception_4a/output_0_split -> inception_4a/output_inception_4a/output_0_split_2
I0603 04:24:33.580546   822 net.cpp:876] inception_4a/output_inception_4a/output_0_split -> inception_4a/output_inception_4a/output_0_split_3
I0603 04:24:33.580555   822 net.cpp:876] inception_4a/output_inception_4a/output_0_split -> inception_4a/output_inception_4a/output_0_split_4
I0603 04:24:33.580586   822 net.cpp:286] Setting up inception_4a/output_inception_4a/output_0_split
I0603 04:24:33.580595   822 net.cpp:293] Top shape: 32 512 16 16 (4194304)
I0603 04:24:33.580602   822 net.cpp:293] Top shape: 32 512 16 16 (4194304)
I0603 04:24:33.580608   822 net.cpp:293] Top shape: 32 512 16 16 (4194304)
I0603 04:24:33.580615   822 net.cpp:293] Top shape: 32 512 16 16 (4194304)
I0603 04:24:33.580621   822 net.cpp:293] Top shape: 32 512 16 16 (4194304)
I0603 04:24:33.580626   822 net.cpp:301] Memory required for data: 1645216384
I0603 04:24:33.580631   822 layer_factory.hpp:114] Creating layer loss1/ave_pool
I0603 04:24:33.580646   822 net.cpp:201] Creating Layer loss1/ave_pool
I0603 04:24:33.580651   822 net.cpp:902] loss1/ave_pool <- inception_4a/output_inception_4a/output_0_split_0
I0603 04:24:33.580659   822 net.cpp:876] loss1/ave_pool -> loss1/ave_pool
I0603 04:24:33.580680   822 net.cpp:286] Setting up loss1/ave_pool
I0603 04:24:33.580687   822 net.cpp:293] Top shape: 32 512 5 5 (409600)
I0603 04:24:33.580693   822 net.cpp:301] Memory required for data: 1646854784
I0603 04:24:33.580698   822 layer_factory.hpp:114] Creating layer loss1/conv
I0603 04:24:33.580715   822 net.cpp:201] Creating Layer loss1/conv
I0603 04:24:33.580723   822 net.cpp:902] loss1/conv <- loss1/ave_pool
I0603 04:24:33.580730   822 net.cpp:876] loss1/conv -> loss1/conv
I0603 04:24:33.583092   822 net.cpp:286] Setting up loss1/conv
I0603 04:24:33.583108   822 net.cpp:293] Top shape: 32 128 5 5 (102400)
I0603 04:24:33.583113   822 net.cpp:301] Memory required for data: 1647264384
I0603 04:24:33.583124   822 layer_factory.hpp:114] Creating layer loss1/relu_conv
I0603 04:24:33.583138   822 net.cpp:201] Creating Layer loss1/relu_conv
I0603 04:24:33.583144   822 net.cpp:902] loss1/relu_conv <- loss1/conv
I0603 04:24:33.583155   822 net.cpp:863] loss1/relu_conv -> loss1/conv (in-place)
I0603 04:24:33.583179   822 net.cpp:286] Setting up loss1/relu_conv
I0603 04:24:33.583187   822 net.cpp:293] Top shape: 32 128 5 5 (102400)
I0603 04:24:33.583192   822 net.cpp:301] Memory required for data: 1647673984
I0603 04:24:33.583197   822 layer_factory.hpp:114] Creating layer loss1/fc
I0603 04:24:33.583214   822 net.cpp:201] Creating Layer loss1/fc
I0603 04:24:33.583220   822 net.cpp:902] loss1/fc <- loss1/conv
I0603 04:24:33.583230   822 net.cpp:876] loss1/fc -> loss1/fc
I0603 04:24:33.604929   822 net.cpp:286] Setting up loss1/fc
I0603 04:24:33.604949   822 net.cpp:293] Top shape: 32 1024 (32768)
I0603 04:24:33.604955   822 net.cpp:301] Memory required for data: 1647805056
I0603 04:24:33.604966   822 layer_factory.hpp:114] Creating layer loss1/relu_fc
I0603 04:24:33.604984   822 net.cpp:201] Creating Layer loss1/relu_fc
I0603 04:24:33.604991   822 net.cpp:902] loss1/relu_fc <- loss1/fc
I0603 04:24:33.605000   822 net.cpp:863] loss1/relu_fc -> loss1/fc (in-place)
I0603 04:24:33.605022   822 net.cpp:286] Setting up loss1/relu_fc
I0603 04:24:33.605031   822 net.cpp:293] Top shape: 32 1024 (32768)
I0603 04:24:33.605034   822 net.cpp:301] Memory required for data: 1647936128
I0603 04:24:33.605041   822 layer_factory.hpp:114] Creating layer loss1/drop_fc
I0603 04:24:33.605062   822 net.cpp:201] Creating Layer loss1/drop_fc
I0603 04:24:33.605067   822 net.cpp:902] loss1/drop_fc <- loss1/fc
I0603 04:24:33.605074   822 net.cpp:863] loss1/drop_fc -> loss1/fc (in-place)
I0603 04:24:33.605089   822 net.cpp:286] Setting up loss1/drop_fc
I0603 04:24:33.605096   822 net.cpp:293] Top shape: 32 1024 (32768)
I0603 04:24:33.605116   822 net.cpp:301] Memory required for data: 1648067200
I0603 04:24:33.605123   822 layer_factory.hpp:114] Creating layer loss1/classifier
I0603 04:24:33.605137   822 net.cpp:201] Creating Layer loss1/classifier
I0603 04:24:33.605142   822 net.cpp:902] loss1/classifier <- loss1/fc
I0603 04:24:33.605151   822 net.cpp:876] loss1/classifier -> loss1/classifier
I0603 04:24:33.605209   822 net.cpp:286] Setting up loss1/classifier
I0603 04:24:33.605218   822 net.cpp:293] Top shape: 32 3 (96)
I0603 04:24:33.605223   822 net.cpp:301] Memory required for data: 1648067584
I0603 04:24:33.605232   822 layer_factory.hpp:114] Creating layer loss1/loss
I0603 04:24:33.605249   822 net.cpp:201] Creating Layer loss1/loss
I0603 04:24:33.605254   822 net.cpp:902] loss1/loss <- loss1/classifier
I0603 04:24:33.605262   822 net.cpp:902] loss1/loss <- label_DataColor256_1_split_0
I0603 04:24:33.605269   822 net.cpp:876] loss1/loss -> loss1/loss
I0603 04:24:33.605286   822 layer_factory.hpp:114] Creating layer loss1/loss
I0603 04:24:33.605319   822 net.cpp:286] Setting up loss1/loss
I0603 04:24:33.605329   822 net.cpp:293] Top shape: (1)
I0603 04:24:33.605334   822 net.cpp:296]     with loss weight 0.3
I0603 04:24:33.605365   822 net.cpp:301] Memory required for data: 1648067588
I0603 04:24:33.605370   822 layer_factory.hpp:114] Creating layer inception_4b/1x1
I0603 04:24:33.605389   822 net.cpp:201] Creating Layer inception_4b/1x1
I0603 04:24:33.605396   822 net.cpp:902] inception_4b/1x1 <- inception_4a/output_inception_4a/output_0_split_1
I0603 04:24:33.605406   822 net.cpp:876] inception_4b/1x1 -> inception_4b/1x1
I0603 04:24:33.608503   822 net.cpp:286] Setting up inception_4b/1x1
I0603 04:24:33.608525   822 net.cpp:293] Top shape: 32 160 16 16 (1310720)
I0603 04:24:33.608532   822 net.cpp:301] Memory required for data: 1653310468
I0603 04:24:33.608546   822 layer_factory.hpp:114] Creating layer inception_4b/relu_1x1
I0603 04:24:33.608562   822 net.cpp:201] Creating Layer inception_4b/relu_1x1
I0603 04:24:33.608569   822 net.cpp:902] inception_4b/relu_1x1 <- inception_4b/1x1
I0603 04:24:33.608579   822 net.cpp:863] inception_4b/relu_1x1 -> inception_4b/1x1 (in-place)
I0603 04:24:33.608604   822 net.cpp:286] Setting up inception_4b/relu_1x1
I0603 04:24:33.608613   822 net.cpp:293] Top shape: 32 160 16 16 (1310720)
I0603 04:24:33.608618   822 net.cpp:301] Memory required for data: 1658553348
I0603 04:24:33.608623   822 layer_factory.hpp:114] Creating layer inception_4b/3x3_reduce
I0603 04:24:33.608645   822 net.cpp:201] Creating Layer inception_4b/3x3_reduce
I0603 04:24:33.608651   822 net.cpp:902] inception_4b/3x3_reduce <- inception_4a/output_inception_4a/output_0_split_2
I0603 04:24:33.608661   822 net.cpp:876] inception_4b/3x3_reduce -> inception_4b/3x3_reduce
I0603 04:24:33.610991   822 net.cpp:286] Setting up inception_4b/3x3_reduce
I0603 04:24:33.611013   822 net.cpp:293] Top shape: 32 112 16 16 (917504)
I0603 04:24:33.611019   822 net.cpp:301] Memory required for data: 1662223364
I0603 04:24:33.611030   822 layer_factory.hpp:114] Creating layer inception_4b/relu_3x3_reduce
I0603 04:24:33.611048   822 net.cpp:201] Creating Layer inception_4b/relu_3x3_reduce
I0603 04:24:33.611055   822 net.cpp:902] inception_4b/relu_3x3_reduce <- inception_4b/3x3_reduce
I0603 04:24:33.611064   822 net.cpp:863] inception_4b/relu_3x3_reduce -> inception_4b/3x3_reduce (in-place)
I0603 04:24:33.611088   822 net.cpp:286] Setting up inception_4b/relu_3x3_reduce
I0603 04:24:33.611099   822 net.cpp:293] Top shape: 32 112 16 16 (917504)
I0603 04:24:33.611104   822 net.cpp:301] Memory required for data: 1665893380
I0603 04:24:33.611109   822 layer_factory.hpp:114] Creating layer inception_4b/3x3
I0603 04:24:33.611131   822 net.cpp:201] Creating Layer inception_4b/3x3
I0603 04:24:33.611137   822 net.cpp:902] inception_4b/3x3 <- inception_4b/3x3_reduce
I0603 04:24:33.611148   822 net.cpp:876] inception_4b/3x3 -> inception_4b/3x3
I0603 04:24:33.615885   822 net.cpp:286] Setting up inception_4b/3x3
I0603 04:24:33.615906   822 net.cpp:293] Top shape: 32 224 16 16 (1835008)
I0603 04:24:33.615929   822 net.cpp:301] Memory required for data: 1673233412
I0603 04:24:33.615943   822 layer_factory.hpp:114] Creating layer inception_4b/relu_3x3
I0603 04:24:33.615957   822 net.cpp:201] Creating Layer inception_4b/relu_3x3
I0603 04:24:33.615963   822 net.cpp:902] inception_4b/relu_3x3 <- inception_4b/3x3
I0603 04:24:33.615972   822 net.cpp:863] inception_4b/relu_3x3 -> inception_4b/3x3 (in-place)
I0603 04:24:33.615991   822 net.cpp:286] Setting up inception_4b/relu_3x3
I0603 04:24:33.615999   822 net.cpp:293] Top shape: 32 224 16 16 (1835008)
I0603 04:24:33.616004   822 net.cpp:301] Memory required for data: 1680573444
I0603 04:24:33.616009   822 layer_factory.hpp:114] Creating layer inception_4b/5x5_reduce
I0603 04:24:33.616029   822 net.cpp:201] Creating Layer inception_4b/5x5_reduce
I0603 04:24:33.616035   822 net.cpp:902] inception_4b/5x5_reduce <- inception_4a/output_inception_4a/output_0_split_3
I0603 04:24:33.616044   822 net.cpp:876] inception_4b/5x5_reduce -> inception_4b/5x5_reduce
I0603 04:24:33.619523   822 net.cpp:286] Setting up inception_4b/5x5_reduce
I0603 04:24:33.619545   822 net.cpp:293] Top shape: 32 24 16 16 (196608)
I0603 04:24:33.619551   822 net.cpp:301] Memory required for data: 1681359876
I0603 04:24:33.619562   822 layer_factory.hpp:114] Creating layer inception_4b/relu_5x5_reduce
I0603 04:24:33.619577   822 net.cpp:201] Creating Layer inception_4b/relu_5x5_reduce
I0603 04:24:33.619585   822 net.cpp:902] inception_4b/relu_5x5_reduce <- inception_4b/5x5_reduce
I0603 04:24:33.619593   822 net.cpp:863] inception_4b/relu_5x5_reduce -> inception_4b/5x5_reduce (in-place)
I0603 04:24:33.619616   822 net.cpp:286] Setting up inception_4b/relu_5x5_reduce
I0603 04:24:33.619623   822 net.cpp:293] Top shape: 32 24 16 16 (196608)
I0603 04:24:33.619628   822 net.cpp:301] Memory required for data: 1682146308
I0603 04:24:33.619633   822 layer_factory.hpp:114] Creating layer inception_4b/5x5
I0603 04:24:33.619652   822 net.cpp:201] Creating Layer inception_4b/5x5
I0603 04:24:33.619658   822 net.cpp:902] inception_4b/5x5 <- inception_4b/5x5_reduce
I0603 04:24:33.619668   822 net.cpp:876] inception_4b/5x5 -> inception_4b/5x5
I0603 04:24:33.621793   822 net.cpp:286] Setting up inception_4b/5x5
I0603 04:24:33.621814   822 net.cpp:293] Top shape: 32 64 16 16 (524288)
I0603 04:24:33.621820   822 net.cpp:301] Memory required for data: 1684243460
I0603 04:24:33.621832   822 layer_factory.hpp:114] Creating layer inception_4b/relu_5x5
I0603 04:24:33.621846   822 net.cpp:201] Creating Layer inception_4b/relu_5x5
I0603 04:24:33.621855   822 net.cpp:902] inception_4b/relu_5x5 <- inception_4b/5x5
I0603 04:24:33.621862   822 net.cpp:863] inception_4b/relu_5x5 -> inception_4b/5x5 (in-place)
I0603 04:24:33.621881   822 net.cpp:286] Setting up inception_4b/relu_5x5
I0603 04:24:33.621889   822 net.cpp:293] Top shape: 32 64 16 16 (524288)
I0603 04:24:33.621894   822 net.cpp:301] Memory required for data: 1686340612
I0603 04:24:33.621899   822 layer_factory.hpp:114] Creating layer inception_4b/pool
I0603 04:24:33.621912   822 net.cpp:201] Creating Layer inception_4b/pool
I0603 04:24:33.621917   822 net.cpp:902] inception_4b/pool <- inception_4a/output_inception_4a/output_0_split_4
I0603 04:24:33.621925   822 net.cpp:876] inception_4b/pool -> inception_4b/pool
I0603 04:24:33.621945   822 net.cpp:286] Setting up inception_4b/pool
I0603 04:24:33.621953   822 net.cpp:293] Top shape: 32 512 16 16 (4194304)
I0603 04:24:33.621958   822 net.cpp:301] Memory required for data: 1703117828
I0603 04:24:33.621963   822 layer_factory.hpp:114] Creating layer inception_4b/pool_proj
I0603 04:24:33.621980   822 net.cpp:201] Creating Layer inception_4b/pool_proj
I0603 04:24:33.621985   822 net.cpp:902] inception_4b/pool_proj <- inception_4b/pool
I0603 04:24:33.621994   822 net.cpp:876] inception_4b/pool_proj -> inception_4b/pool_proj
I0603 04:24:33.624198   822 net.cpp:286] Setting up inception_4b/pool_proj
I0603 04:24:33.624220   822 net.cpp:293] Top shape: 32 64 16 16 (524288)
I0603 04:24:33.624243   822 net.cpp:301] Memory required for data: 1705214980
I0603 04:24:33.624256   822 layer_factory.hpp:114] Creating layer inception_4b/relu_pool_proj
I0603 04:24:33.624270   822 net.cpp:201] Creating Layer inception_4b/relu_pool_proj
I0603 04:24:33.624277   822 net.cpp:902] inception_4b/relu_pool_proj <- inception_4b/pool_proj
I0603 04:24:33.624289   822 net.cpp:863] inception_4b/relu_pool_proj -> inception_4b/pool_proj (in-place)
I0603 04:24:33.624313   822 net.cpp:286] Setting up inception_4b/relu_pool_proj
I0603 04:24:33.624321   822 net.cpp:293] Top shape: 32 64 16 16 (524288)
I0603 04:24:33.624326   822 net.cpp:301] Memory required for data: 1707312132
I0603 04:24:33.624331   822 layer_factory.hpp:114] Creating layer inception_4b/output
I0603 04:24:33.624346   822 net.cpp:201] Creating Layer inception_4b/output
I0603 04:24:33.624352   822 net.cpp:902] inception_4b/output <- inception_4b/1x1
I0603 04:24:33.624359   822 net.cpp:902] inception_4b/output <- inception_4b/3x3
I0603 04:24:33.624366   822 net.cpp:902] inception_4b/output <- inception_4b/5x5
I0603 04:24:33.624372   822 net.cpp:902] inception_4b/output <- inception_4b/pool_proj
I0603 04:24:33.624379   822 net.cpp:876] inception_4b/output -> inception_4b/output
I0603 04:24:33.624425   822 net.cpp:286] Setting up inception_4b/output
I0603 04:24:33.624434   822 net.cpp:293] Top shape: 32 512 16 16 (4194304)
I0603 04:24:33.624439   822 net.cpp:301] Memory required for data: 1724089348
I0603 04:24:33.624445   822 layer_factory.hpp:114] Creating layer inception_4b/output_inception_4b/output_0_split
I0603 04:24:33.624455   822 net.cpp:201] Creating Layer inception_4b/output_inception_4b/output_0_split
I0603 04:24:33.624461   822 net.cpp:902] inception_4b/output_inception_4b/output_0_split <- inception_4b/output
I0603 04:24:33.624469   822 net.cpp:876] inception_4b/output_inception_4b/output_0_split -> inception_4b/output_inception_4b/output_0_split_0
I0603 04:24:33.624480   822 net.cpp:876] inception_4b/output_inception_4b/output_0_split -> inception_4b/output_inception_4b/output_0_split_1
I0603 04:24:33.624488   822 net.cpp:876] inception_4b/output_inception_4b/output_0_split -> inception_4b/output_inception_4b/output_0_split_2
I0603 04:24:33.624496   822 net.cpp:876] inception_4b/output_inception_4b/output_0_split -> inception_4b/output_inception_4b/output_0_split_3
I0603 04:24:33.624519   822 net.cpp:286] Setting up inception_4b/output_inception_4b/output_0_split
I0603 04:24:33.624527   822 net.cpp:293] Top shape: 32 512 16 16 (4194304)
I0603 04:24:33.624533   822 net.cpp:293] Top shape: 32 512 16 16 (4194304)
I0603 04:24:33.624539   822 net.cpp:293] Top shape: 32 512 16 16 (4194304)
I0603 04:24:33.624547   822 net.cpp:293] Top shape: 32 512 16 16 (4194304)
I0603 04:24:33.624550   822 net.cpp:301] Memory required for data: 1791198212
I0603 04:24:33.624557   822 layer_factory.hpp:114] Creating layer inception_4c/1x1
I0603 04:24:33.624577   822 net.cpp:201] Creating Layer inception_4c/1x1
I0603 04:24:33.624583   822 net.cpp:902] inception_4c/1x1 <- inception_4b/output_inception_4b/output_0_split_0
I0603 04:24:33.624594   822 net.cpp:876] inception_4c/1x1 -> inception_4c/1x1
I0603 04:24:33.627497   822 net.cpp:286] Setting up inception_4c/1x1
I0603 04:24:33.627513   822 net.cpp:293] Top shape: 32 128 16 16 (1048576)
I0603 04:24:33.627519   822 net.cpp:301] Memory required for data: 1795392516
I0603 04:24:33.627530   822 layer_factory.hpp:114] Creating layer inception_4c/relu_1x1
I0603 04:24:33.627545   822 net.cpp:201] Creating Layer inception_4c/relu_1x1
I0603 04:24:33.627553   822 net.cpp:902] inception_4c/relu_1x1 <- inception_4c/1x1
I0603 04:24:33.627563   822 net.cpp:863] inception_4c/relu_1x1 -> inception_4c/1x1 (in-place)
I0603 04:24:33.627586   822 net.cpp:286] Setting up inception_4c/relu_1x1
I0603 04:24:33.627594   822 net.cpp:293] Top shape: 32 128 16 16 (1048576)
I0603 04:24:33.627599   822 net.cpp:301] Memory required for data: 1799586820
I0603 04:24:33.627604   822 layer_factory.hpp:114] Creating layer inception_4c/3x3_reduce
I0603 04:24:33.627650   822 net.cpp:201] Creating Layer inception_4c/3x3_reduce
I0603 04:24:33.627656   822 net.cpp:902] inception_4c/3x3_reduce <- inception_4b/output_inception_4b/output_0_split_1
I0603 04:24:33.627665   822 net.cpp:876] inception_4c/3x3_reduce -> inception_4c/3x3_reduce
I0603 04:24:33.630411   822 net.cpp:286] Setting up inception_4c/3x3_reduce
I0603 04:24:33.630432   822 net.cpp:293] Top shape: 32 128 16 16 (1048576)
I0603 04:24:33.630439   822 net.cpp:301] Memory required for data: 1803781124
I0603 04:24:33.630450   822 layer_factory.hpp:114] Creating layer inception_4c/relu_3x3_reduce
I0603 04:24:33.630468   822 net.cpp:201] Creating Layer inception_4c/relu_3x3_reduce
I0603 04:24:33.630476   822 net.cpp:902] inception_4c/relu_3x3_reduce <- inception_4c/3x3_reduce
I0603 04:24:33.630484   822 net.cpp:863] inception_4c/relu_3x3_reduce -> inception_4c/3x3_reduce (in-place)
I0603 04:24:33.630509   822 net.cpp:286] Setting up inception_4c/relu_3x3_reduce
I0603 04:24:33.630517   822 net.cpp:293] Top shape: 32 128 16 16 (1048576)
I0603 04:24:33.630522   822 net.cpp:301] Memory required for data: 1807975428
I0603 04:24:33.630528   822 layer_factory.hpp:114] Creating layer inception_4c/3x3
I0603 04:24:33.630553   822 net.cpp:201] Creating Layer inception_4c/3x3
I0603 04:24:33.630558   822 net.cpp:902] inception_4c/3x3 <- inception_4c/3x3_reduce
I0603 04:24:33.630569   822 net.cpp:876] inception_4c/3x3 -> inception_4c/3x3
I0603 04:24:33.636493   822 net.cpp:286] Setting up inception_4c/3x3
I0603 04:24:33.636515   822 net.cpp:293] Top shape: 32 256 16 16 (2097152)
I0603 04:24:33.636520   822 net.cpp:301] Memory required for data: 1816364036
I0603 04:24:33.636546   822 layer_factory.hpp:114] Creating layer inception_4c/relu_3x3
I0603 04:24:33.636562   822 net.cpp:201] Creating Layer inception_4c/relu_3x3
I0603 04:24:33.636569   822 net.cpp:902] inception_4c/relu_3x3 <- inception_4c/3x3
I0603 04:24:33.636579   822 net.cpp:863] inception_4c/relu_3x3 -> inception_4c/3x3 (in-place)
I0603 04:24:33.636602   822 net.cpp:286] Setting up inception_4c/relu_3x3
I0603 04:24:33.636610   822 net.cpp:293] Top shape: 32 256 16 16 (2097152)
I0603 04:24:33.636615   822 net.cpp:301] Memory required for data: 1824752644
I0603 04:24:33.636620   822 layer_factory.hpp:114] Creating layer inception_4c/5x5_reduce
I0603 04:24:33.636642   822 net.cpp:201] Creating Layer inception_4c/5x5_reduce
I0603 04:24:33.636648   822 net.cpp:902] inception_4c/5x5_reduce <- inception_4b/output_inception_4b/output_0_split_2
I0603 04:24:33.636660   822 net.cpp:876] inception_4c/5x5_reduce -> inception_4c/5x5_reduce
I0603 04:24:33.640251   822 net.cpp:286] Setting up inception_4c/5x5_reduce
I0603 04:24:33.640274   822 net.cpp:293] Top shape: 32 24 16 16 (196608)
I0603 04:24:33.640278   822 net.cpp:301] Memory required for data: 1825539076
I0603 04:24:33.640290   822 layer_factory.hpp:114] Creating layer inception_4c/relu_5x5_reduce
I0603 04:24:33.640305   822 net.cpp:201] Creating Layer inception_4c/relu_5x5_reduce
I0603 04:24:33.640312   822 net.cpp:902] inception_4c/relu_5x5_reduce <- inception_4c/5x5_reduce
I0603 04:24:33.640321   822 net.cpp:863] inception_4c/relu_5x5_reduce -> inception_4c/5x5_reduce (in-place)
I0603 04:24:33.640341   822 net.cpp:286] Setting up inception_4c/relu_5x5_reduce
I0603 04:24:33.640349   822 net.cpp:293] Top shape: 32 24 16 16 (196608)
I0603 04:24:33.640354   822 net.cpp:301] Memory required for data: 1826325508
I0603 04:24:33.640360   822 layer_factory.hpp:114] Creating layer inception_4c/5x5
I0603 04:24:33.640378   822 net.cpp:201] Creating Layer inception_4c/5x5
I0603 04:24:33.640384   822 net.cpp:902] inception_4c/5x5 <- inception_4c/5x5_reduce
I0603 04:24:33.640393   822 net.cpp:876] inception_4c/5x5 -> inception_4c/5x5
I0603 04:24:33.642544   822 net.cpp:286] Setting up inception_4c/5x5
I0603 04:24:33.642565   822 net.cpp:293] Top shape: 32 64 16 16 (524288)
I0603 04:24:33.642570   822 net.cpp:301] Memory required for data: 1828422660
I0603 04:24:33.642582   822 layer_factory.hpp:114] Creating layer inception_4c/relu_5x5
I0603 04:24:33.642612   822 net.cpp:201] Creating Layer inception_4c/relu_5x5
I0603 04:24:33.642621   822 net.cpp:902] inception_4c/relu_5x5 <- inception_4c/5x5
I0603 04:24:33.642628   822 net.cpp:863] inception_4c/relu_5x5 -> inception_4c/5x5 (in-place)
I0603 04:24:33.642649   822 net.cpp:286] Setting up inception_4c/relu_5x5
I0603 04:24:33.642657   822 net.cpp:293] Top shape: 32 64 16 16 (524288)
I0603 04:24:33.642662   822 net.cpp:301] Memory required for data: 1830519812
I0603 04:24:33.642666   822 layer_factory.hpp:114] Creating layer inception_4c/pool
I0603 04:24:33.642678   822 net.cpp:201] Creating Layer inception_4c/pool
I0603 04:24:33.642684   822 net.cpp:902] inception_4c/pool <- inception_4b/output_inception_4b/output_0_split_3
I0603 04:24:33.642693   822 net.cpp:876] inception_4c/pool -> inception_4c/pool
I0603 04:24:33.642711   822 net.cpp:286] Setting up inception_4c/pool
I0603 04:24:33.642719   822 net.cpp:293] Top shape: 32 512 16 16 (4194304)
I0603 04:24:33.642724   822 net.cpp:301] Memory required for data: 1847297028
I0603 04:24:33.642729   822 layer_factory.hpp:114] Creating layer inception_4c/pool_proj
I0603 04:24:33.642747   822 net.cpp:201] Creating Layer inception_4c/pool_proj
I0603 04:24:33.642753   822 net.cpp:902] inception_4c/pool_proj <- inception_4c/pool
I0603 04:24:33.642762   822 net.cpp:876] inception_4c/pool_proj -> inception_4c/pool_proj
I0603 04:24:33.644922   822 net.cpp:286] Setting up inception_4c/pool_proj
I0603 04:24:33.644943   822 net.cpp:293] Top shape: 32 64 16 16 (524288)
I0603 04:24:33.644949   822 net.cpp:301] Memory required for data: 1849394180
I0603 04:24:33.644961   822 layer_factory.hpp:114] Creating layer inception_4c/relu_pool_proj
I0603 04:24:33.644978   822 net.cpp:201] Creating Layer inception_4c/relu_pool_proj
I0603 04:24:33.644985   822 net.cpp:902] inception_4c/relu_pool_proj <- inception_4c/pool_proj
I0603 04:24:33.644994   822 net.cpp:863] inception_4c/relu_pool_proj -> inception_4c/pool_proj (in-place)
I0603 04:24:33.645020   822 net.cpp:286] Setting up inception_4c/relu_pool_proj
I0603 04:24:33.645027   822 net.cpp:293] Top shape: 32 64 16 16 (524288)
I0603 04:24:33.645032   822 net.cpp:301] Memory required for data: 1851491332
I0603 04:24:33.645037   822 layer_factory.hpp:114] Creating layer inception_4c/output
I0603 04:24:33.645051   822 net.cpp:201] Creating Layer inception_4c/output
I0603 04:24:33.645057   822 net.cpp:902] inception_4c/output <- inception_4c/1x1
I0603 04:24:33.645064   822 net.cpp:902] inception_4c/output <- inception_4c/3x3
I0603 04:24:33.645071   822 net.cpp:902] inception_4c/output <- inception_4c/5x5
I0603 04:24:33.645076   822 net.cpp:902] inception_4c/output <- inception_4c/pool_proj
I0603 04:24:33.645087   822 net.cpp:876] inception_4c/output -> inception_4c/output
I0603 04:24:33.645129   822 net.cpp:286] Setting up inception_4c/output
I0603 04:24:33.645138   822 net.cpp:293] Top shape: 32 512 16 16 (4194304)
I0603 04:24:33.645143   822 net.cpp:301] Memory required for data: 1868268548
I0603 04:24:33.645148   822 layer_factory.hpp:114] Creating layer inception_4c/output_inception_4c/output_0_split
I0603 04:24:33.645159   822 net.cpp:201] Creating Layer inception_4c/output_inception_4c/output_0_split
I0603 04:24:33.645164   822 net.cpp:902] inception_4c/output_inception_4c/output_0_split <- inception_4c/output
I0603 04:24:33.645172   822 net.cpp:876] inception_4c/output_inception_4c/output_0_split -> inception_4c/output_inception_4c/output_0_split_0
I0603 04:24:33.645181   822 net.cpp:876] inception_4c/output_inception_4c/output_0_split -> inception_4c/output_inception_4c/output_0_split_1
I0603 04:24:33.645190   822 net.cpp:876] inception_4c/output_inception_4c/output_0_split -> inception_4c/output_inception_4c/output_0_split_2
I0603 04:24:33.645198   822 net.cpp:876] inception_4c/output_inception_4c/output_0_split -> inception_4c/output_inception_4c/output_0_split_3
I0603 04:24:33.645221   822 net.cpp:286] Setting up inception_4c/output_inception_4c/output_0_split
I0603 04:24:33.645229   822 net.cpp:293] Top shape: 32 512 16 16 (4194304)
I0603 04:24:33.645252   822 net.cpp:293] Top shape: 32 512 16 16 (4194304)
I0603 04:24:33.645259   822 net.cpp:293] Top shape: 32 512 16 16 (4194304)
I0603 04:24:33.645265   822 net.cpp:293] Top shape: 32 512 16 16 (4194304)
I0603 04:24:33.645270   822 net.cpp:301] Memory required for data: 1935377412
I0603 04:24:33.645277   822 layer_factory.hpp:114] Creating layer inception_4d/1x1
I0603 04:24:33.645299   822 net.cpp:201] Creating Layer inception_4d/1x1
I0603 04:24:33.645305   822 net.cpp:902] inception_4d/1x1 <- inception_4c/output_inception_4c/output_0_split_0
I0603 04:24:33.645314   822 net.cpp:876] inception_4d/1x1 -> inception_4d/1x1
I0603 04:24:33.648063   822 net.cpp:286] Setting up inception_4d/1x1
I0603 04:24:33.648079   822 net.cpp:293] Top shape: 32 112 16 16 (917504)
I0603 04:24:33.648085   822 net.cpp:301] Memory required for data: 1939047428
I0603 04:24:33.648097   822 layer_factory.hpp:114] Creating layer inception_4d/relu_1x1
I0603 04:24:33.648111   822 net.cpp:201] Creating Layer inception_4d/relu_1x1
I0603 04:24:33.648118   822 net.cpp:902] inception_4d/relu_1x1 <- inception_4d/1x1
I0603 04:24:33.648126   822 net.cpp:863] inception_4d/relu_1x1 -> inception_4d/1x1 (in-place)
I0603 04:24:33.648149   822 net.cpp:286] Setting up inception_4d/relu_1x1
I0603 04:24:33.648159   822 net.cpp:293] Top shape: 32 112 16 16 (917504)
I0603 04:24:33.648164   822 net.cpp:301] Memory required for data: 1942717444
I0603 04:24:33.648169   822 layer_factory.hpp:114] Creating layer inception_4d/3x3_reduce
I0603 04:24:33.648190   822 net.cpp:201] Creating Layer inception_4d/3x3_reduce
I0603 04:24:33.648196   822 net.cpp:902] inception_4d/3x3_reduce <- inception_4c/output_inception_4c/output_0_split_1
I0603 04:24:33.648207   822 net.cpp:876] inception_4d/3x3_reduce -> inception_4d/3x3_reduce
I0603 04:24:33.651206   822 net.cpp:286] Setting up inception_4d/3x3_reduce
I0603 04:24:33.651229   822 net.cpp:293] Top shape: 32 144 16 16 (1179648)
I0603 04:24:33.651235   822 net.cpp:301] Memory required for data: 1947436036
I0603 04:24:33.651247   822 layer_factory.hpp:114] Creating layer inception_4d/relu_3x3_reduce
I0603 04:24:33.651262   822 net.cpp:201] Creating Layer inception_4d/relu_3x3_reduce
I0603 04:24:33.651269   822 net.cpp:902] inception_4d/relu_3x3_reduce <- inception_4d/3x3_reduce
I0603 04:24:33.651278   822 net.cpp:863] inception_4d/relu_3x3_reduce -> inception_4d/3x3_reduce (in-place)
I0603 04:24:33.651304   822 net.cpp:286] Setting up inception_4d/relu_3x3_reduce
I0603 04:24:33.651310   822 net.cpp:293] Top shape: 32 144 16 16 (1179648)
I0603 04:24:33.651315   822 net.cpp:301] Memory required for data: 1952154628
I0603 04:24:33.651321   822 layer_factory.hpp:114] Creating layer inception_4d/3x3
I0603 04:24:33.651343   822 net.cpp:201] Creating Layer inception_4d/3x3
I0603 04:24:33.651350   822 net.cpp:902] inception_4d/3x3 <- inception_4d/3x3_reduce
I0603 04:24:33.651361   822 net.cpp:876] inception_4d/3x3 -> inception_4d/3x3
I0603 04:24:33.658191   822 net.cpp:286] Setting up inception_4d/3x3
I0603 04:24:33.658215   822 net.cpp:293] Top shape: 32 288 16 16 (2359296)
I0603 04:24:33.658221   822 net.cpp:301] Memory required for data: 1961591812
I0603 04:24:33.658233   822 layer_factory.hpp:114] Creating layer inception_4d/relu_3x3
I0603 04:24:33.658252   822 net.cpp:201] Creating Layer inception_4d/relu_3x3
I0603 04:24:33.658259   822 net.cpp:902] inception_4d/relu_3x3 <- inception_4d/3x3
I0603 04:24:33.658268   822 net.cpp:863] inception_4d/relu_3x3 -> inception_4d/3x3 (in-place)
I0603 04:24:33.658313   822 net.cpp:286] Setting up inception_4d/relu_3x3
I0603 04:24:33.658321   822 net.cpp:293] Top shape: 32 288 16 16 (2359296)
I0603 04:24:33.658326   822 net.cpp:301] Memory required for data: 1971028996
I0603 04:24:33.658331   822 layer_factory.hpp:114] Creating layer inception_4d/5x5_reduce
I0603 04:24:33.658355   822 net.cpp:201] Creating Layer inception_4d/5x5_reduce
I0603 04:24:33.658361   822 net.cpp:902] inception_4d/5x5_reduce <- inception_4c/output_inception_4c/output_0_split_2
I0603 04:24:33.658372   822 net.cpp:876] inception_4d/5x5_reduce -> inception_4d/5x5_reduce
I0603 04:24:33.660223   822 net.cpp:286] Setting up inception_4d/5x5_reduce
I0603 04:24:33.660245   822 net.cpp:293] Top shape: 32 32 16 16 (262144)
I0603 04:24:33.660253   822 net.cpp:301] Memory required for data: 1972077572
I0603 04:24:33.660264   822 layer_factory.hpp:114] Creating layer inception_4d/relu_5x5_reduce
I0603 04:24:33.660279   822 net.cpp:201] Creating Layer inception_4d/relu_5x5_reduce
I0603 04:24:33.660287   822 net.cpp:902] inception_4d/relu_5x5_reduce <- inception_4d/5x5_reduce
I0603 04:24:33.660295   822 net.cpp:863] inception_4d/relu_5x5_reduce -> inception_4d/5x5_reduce (in-place)
I0603 04:24:33.660315   822 net.cpp:286] Setting up inception_4d/relu_5x5_reduce
I0603 04:24:33.660323   822 net.cpp:293] Top shape: 32 32 16 16 (262144)
I0603 04:24:33.660328   822 net.cpp:301] Memory required for data: 1973126148
I0603 04:24:33.660334   822 layer_factory.hpp:114] Creating layer inception_4d/5x5
I0603 04:24:33.660352   822 net.cpp:201] Creating Layer inception_4d/5x5
I0603 04:24:33.660357   822 net.cpp:902] inception_4d/5x5 <- inception_4d/5x5_reduce
I0603 04:24:33.660367   822 net.cpp:876] inception_4d/5x5 -> inception_4d/5x5
I0603 04:24:33.662880   822 net.cpp:286] Setting up inception_4d/5x5
I0603 04:24:33.662901   822 net.cpp:293] Top shape: 32 64 16 16 (524288)
I0603 04:24:33.662907   822 net.cpp:301] Memory required for data: 1975223300
I0603 04:24:33.662919   822 layer_factory.hpp:114] Creating layer inception_4d/relu_5x5
I0603 04:24:33.662933   822 net.cpp:201] Creating Layer inception_4d/relu_5x5
I0603 04:24:33.662941   822 net.cpp:902] inception_4d/relu_5x5 <- inception_4d/5x5
I0603 04:24:33.662950   822 net.cpp:863] inception_4d/relu_5x5 -> inception_4d/5x5 (in-place)
I0603 04:24:33.662971   822 net.cpp:286] Setting up inception_4d/relu_5x5
I0603 04:24:33.662978   822 net.cpp:293] Top shape: 32 64 16 16 (524288)
I0603 04:24:33.662983   822 net.cpp:301] Memory required for data: 1977320452
I0603 04:24:33.662989   822 layer_factory.hpp:114] Creating layer inception_4d/pool
I0603 04:24:33.663000   822 net.cpp:201] Creating Layer inception_4d/pool
I0603 04:24:33.663007   822 net.cpp:902] inception_4d/pool <- inception_4c/output_inception_4c/output_0_split_3
I0603 04:24:33.663015   822 net.cpp:876] inception_4d/pool -> inception_4d/pool
I0603 04:24:33.663034   822 net.cpp:286] Setting up inception_4d/pool
I0603 04:24:33.663043   822 net.cpp:293] Top shape: 32 512 16 16 (4194304)
I0603 04:24:33.663046   822 net.cpp:301] Memory required for data: 1994097668
I0603 04:24:33.663053   822 layer_factory.hpp:114] Creating layer inception_4d/pool_proj
I0603 04:24:33.663069   822 net.cpp:201] Creating Layer inception_4d/pool_proj
I0603 04:24:33.663074   822 net.cpp:902] inception_4d/pool_proj <- inception_4d/pool
I0603 04:24:33.663084   822 net.cpp:876] inception_4d/pool_proj -> inception_4d/pool_proj
I0603 04:24:33.665194   822 net.cpp:286] Setting up inception_4d/pool_proj
I0603 04:24:33.665215   822 net.cpp:293] Top shape: 32 64 16 16 (524288)
I0603 04:24:33.665221   822 net.cpp:301] Memory required for data: 1996194820
I0603 04:24:33.665233   822 layer_factory.hpp:114] Creating layer inception_4d/relu_pool_proj
I0603 04:24:33.665251   822 net.cpp:201] Creating Layer inception_4d/relu_pool_proj
I0603 04:24:33.665259   822 net.cpp:902] inception_4d/relu_pool_proj <- inception_4d/pool_proj
I0603 04:24:33.665267   822 net.cpp:863] inception_4d/relu_pool_proj -> inception_4d/pool_proj (in-place)
I0603 04:24:33.665292   822 net.cpp:286] Setting up inception_4d/relu_pool_proj
I0603 04:24:33.665300   822 net.cpp:293] Top shape: 32 64 16 16 (524288)
I0603 04:24:33.665305   822 net.cpp:301] Memory required for data: 1998291972
I0603 04:24:33.665311   822 layer_factory.hpp:114] Creating layer inception_4d/output
I0603 04:24:33.665321   822 net.cpp:201] Creating Layer inception_4d/output
I0603 04:24:33.665328   822 net.cpp:902] inception_4d/output <- inception_4d/1x1
I0603 04:24:33.665334   822 net.cpp:902] inception_4d/output <- inception_4d/3x3
I0603 04:24:33.665356   822 net.cpp:902] inception_4d/output <- inception_4d/5x5
I0603 04:24:33.665362   822 net.cpp:902] inception_4d/output <- inception_4d/pool_proj
I0603 04:24:33.665370   822 net.cpp:876] inception_4d/output -> inception_4d/output
I0603 04:24:33.665417   822 net.cpp:286] Setting up inception_4d/output
I0603 04:24:33.665426   822 net.cpp:293] Top shape: 32 528 16 16 (4325376)
I0603 04:24:33.665431   822 net.cpp:301] Memory required for data: 2015593476
I0603 04:24:33.665436   822 layer_factory.hpp:114] Creating layer inception_4d/output_inception_4d/output_0_split
I0603 04:24:33.665451   822 net.cpp:201] Creating Layer inception_4d/output_inception_4d/output_0_split
I0603 04:24:33.665455   822 net.cpp:902] inception_4d/output_inception_4d/output_0_split <- inception_4d/output
I0603 04:24:33.665463   822 net.cpp:876] inception_4d/output_inception_4d/output_0_split -> inception_4d/output_inception_4d/output_0_split_0
I0603 04:24:33.665473   822 net.cpp:876] inception_4d/output_inception_4d/output_0_split -> inception_4d/output_inception_4d/output_0_split_1
I0603 04:24:33.665482   822 net.cpp:876] inception_4d/output_inception_4d/output_0_split -> inception_4d/output_inception_4d/output_0_split_2
I0603 04:24:33.665490   822 net.cpp:876] inception_4d/output_inception_4d/output_0_split -> inception_4d/output_inception_4d/output_0_split_3
I0603 04:24:33.665499   822 net.cpp:876] inception_4d/output_inception_4d/output_0_split -> inception_4d/output_inception_4d/output_0_split_4
I0603 04:24:33.665529   822 net.cpp:286] Setting up inception_4d/output_inception_4d/output_0_split
I0603 04:24:33.665539   822 net.cpp:293] Top shape: 32 528 16 16 (4325376)
I0603 04:24:33.665546   822 net.cpp:293] Top shape: 32 528 16 16 (4325376)
I0603 04:24:33.665552   822 net.cpp:293] Top shape: 32 528 16 16 (4325376)
I0603 04:24:33.665558   822 net.cpp:293] Top shape: 32 528 16 16 (4325376)
I0603 04:24:33.665565   822 net.cpp:293] Top shape: 32 528 16 16 (4325376)
I0603 04:24:33.665570   822 net.cpp:301] Memory required for data: 2102100996
I0603 04:24:33.665575   822 layer_factory.hpp:114] Creating layer loss2/ave_pool
I0603 04:24:33.665588   822 net.cpp:201] Creating Layer loss2/ave_pool
I0603 04:24:33.665594   822 net.cpp:902] loss2/ave_pool <- inception_4d/output_inception_4d/output_0_split_0
I0603 04:24:33.665602   822 net.cpp:876] loss2/ave_pool -> loss2/ave_pool
I0603 04:24:33.665623   822 net.cpp:286] Setting up loss2/ave_pool
I0603 04:24:33.665630   822 net.cpp:293] Top shape: 32 528 5 5 (422400)
I0603 04:24:33.665635   822 net.cpp:301] Memory required for data: 2103790596
I0603 04:24:33.665640   822 layer_factory.hpp:114] Creating layer loss2/conv
I0603 04:24:33.665659   822 net.cpp:201] Creating Layer loss2/conv
I0603 04:24:33.665666   822 net.cpp:902] loss2/conv <- loss2/ave_pool
I0603 04:24:33.665675   822 net.cpp:876] loss2/conv -> loss2/conv
I0603 04:24:33.668072   822 net.cpp:286] Setting up loss2/conv
I0603 04:24:33.668088   822 net.cpp:293] Top shape: 32 128 5 5 (102400)
I0603 04:24:33.668093   822 net.cpp:301] Memory required for data: 2104200196
I0603 04:24:33.668104   822 layer_factory.hpp:114] Creating layer loss2/relu_conv
I0603 04:24:33.668118   822 net.cpp:201] Creating Layer loss2/relu_conv
I0603 04:24:33.668124   822 net.cpp:902] loss2/relu_conv <- loss2/conv
I0603 04:24:33.668135   822 net.cpp:863] loss2/relu_conv -> loss2/conv (in-place)
I0603 04:24:33.668160   822 net.cpp:286] Setting up loss2/relu_conv
I0603 04:24:33.668167   822 net.cpp:293] Top shape: 32 128 5 5 (102400)
I0603 04:24:33.668172   822 net.cpp:301] Memory required for data: 2104609796
I0603 04:24:33.668177   822 layer_factory.hpp:114] Creating layer loss2/fc
I0603 04:24:33.668195   822 net.cpp:201] Creating Layer loss2/fc
I0603 04:24:33.668200   822 net.cpp:902] loss2/fc <- loss2/conv
I0603 04:24:33.668211   822 net.cpp:876] loss2/fc -> loss2/fc
I0603 04:24:33.689893   822 net.cpp:286] Setting up loss2/fc
I0603 04:24:33.689915   822 net.cpp:293] Top shape: 32 1024 (32768)
I0603 04:24:33.689921   822 net.cpp:301] Memory required for data: 2104740868
I0603 04:24:33.689951   822 layer_factory.hpp:114] Creating layer loss2/relu_fc
I0603 04:24:33.689970   822 net.cpp:201] Creating Layer loss2/relu_fc
I0603 04:24:33.689976   822 net.cpp:902] loss2/relu_fc <- loss2/fc
I0603 04:24:33.689985   822 net.cpp:863] loss2/relu_fc -> loss2/fc (in-place)
I0603 04:24:33.690008   822 net.cpp:286] Setting up loss2/relu_fc
I0603 04:24:33.690017   822 net.cpp:293] Top shape: 32 1024 (32768)
I0603 04:24:33.690022   822 net.cpp:301] Memory required for data: 2104871940
I0603 04:24:33.690027   822 layer_factory.hpp:114] Creating layer loss2/drop_fc
I0603 04:24:33.690037   822 net.cpp:201] Creating Layer loss2/drop_fc
I0603 04:24:33.690043   822 net.cpp:902] loss2/drop_fc <- loss2/fc
I0603 04:24:33.690050   822 net.cpp:863] loss2/drop_fc -> loss2/fc (in-place)
I0603 04:24:33.690064   822 net.cpp:286] Setting up loss2/drop_fc
I0603 04:24:33.690071   822 net.cpp:293] Top shape: 32 1024 (32768)
I0603 04:24:33.690076   822 net.cpp:301] Memory required for data: 2105003012
I0603 04:24:33.690081   822 layer_factory.hpp:114] Creating layer loss2/classifier
I0603 04:24:33.690096   822 net.cpp:201] Creating Layer loss2/classifier
I0603 04:24:33.690102   822 net.cpp:902] loss2/classifier <- loss2/fc
I0603 04:24:33.690111   822 net.cpp:876] loss2/classifier -> loss2/classifier
I0603 04:24:33.690174   822 net.cpp:286] Setting up loss2/classifier
I0603 04:24:33.690183   822 net.cpp:293] Top shape: 32 3 (96)
I0603 04:24:33.690188   822 net.cpp:301] Memory required for data: 2105003396
I0603 04:24:33.690197   822 layer_factory.hpp:114] Creating layer loss2/loss
I0603 04:24:33.690207   822 net.cpp:201] Creating Layer loss2/loss
I0603 04:24:33.690213   822 net.cpp:902] loss2/loss <- loss2/classifier
I0603 04:24:33.690220   822 net.cpp:902] loss2/loss <- label_DataColor256_1_split_1
I0603 04:24:33.690228   822 net.cpp:876] loss2/loss -> loss2/loss
I0603 04:24:33.690240   822 layer_factory.hpp:114] Creating layer loss2/loss
I0603 04:24:33.690264   822 net.cpp:286] Setting up loss2/loss
I0603 04:24:33.690286   822 net.cpp:293] Top shape: (1)
I0603 04:24:33.690292   822 net.cpp:296]     with loss weight 0.3
I0603 04:24:33.690315   822 net.cpp:301] Memory required for data: 2105003400
I0603 04:24:33.690320   822 layer_factory.hpp:114] Creating layer inception_4e/1x1
I0603 04:24:33.690340   822 net.cpp:201] Creating Layer inception_4e/1x1
I0603 04:24:33.690346   822 net.cpp:902] inception_4e/1x1 <- inception_4d/output_inception_4d/output_0_split_1
I0603 04:24:33.690354   822 net.cpp:876] inception_4e/1x1 -> inception_4e/1x1
I0603 04:24:33.694195   822 net.cpp:286] Setting up inception_4e/1x1
I0603 04:24:33.694217   822 net.cpp:293] Top shape: 32 256 16 16 (2097152)
I0603 04:24:33.694223   822 net.cpp:301] Memory required for data: 2113392008
I0603 04:24:33.694236   822 layer_factory.hpp:114] Creating layer inception_4e/relu_1x1
I0603 04:24:33.694254   822 net.cpp:201] Creating Layer inception_4e/relu_1x1
I0603 04:24:33.694262   822 net.cpp:902] inception_4e/relu_1x1 <- inception_4e/1x1
I0603 04:24:33.694286   822 net.cpp:863] inception_4e/relu_1x1 -> inception_4e/1x1 (in-place)
I0603 04:24:33.694314   822 net.cpp:286] Setting up inception_4e/relu_1x1
I0603 04:24:33.694322   822 net.cpp:293] Top shape: 32 256 16 16 (2097152)
I0603 04:24:33.694327   822 net.cpp:301] Memory required for data: 2121780616
I0603 04:24:33.694334   822 layer_factory.hpp:114] Creating layer inception_4e/3x3_reduce
I0603 04:24:33.694356   822 net.cpp:201] Creating Layer inception_4e/3x3_reduce
I0603 04:24:33.694362   822 net.cpp:902] inception_4e/3x3_reduce <- inception_4d/output_inception_4d/output_0_split_2
I0603 04:24:33.694373   822 net.cpp:876] inception_4e/3x3_reduce -> inception_4e/3x3_reduce
I0603 04:24:33.697036   822 net.cpp:286] Setting up inception_4e/3x3_reduce
I0603 04:24:33.697058   822 net.cpp:293] Top shape: 32 160 16 16 (1310720)
I0603 04:24:33.697064   822 net.cpp:301] Memory required for data: 2127023496
I0603 04:24:33.697075   822 layer_factory.hpp:114] Creating layer inception_4e/relu_3x3_reduce
I0603 04:24:33.697110   822 net.cpp:201] Creating Layer inception_4e/relu_3x3_reduce
I0603 04:24:33.697118   822 net.cpp:902] inception_4e/relu_3x3_reduce <- inception_4e/3x3_reduce
I0603 04:24:33.697126   822 net.cpp:863] inception_4e/relu_3x3_reduce -> inception_4e/3x3_reduce (in-place)
I0603 04:24:33.697151   822 net.cpp:286] Setting up inception_4e/relu_3x3_reduce
I0603 04:24:33.697160   822 net.cpp:293] Top shape: 32 160 16 16 (1310720)
I0603 04:24:33.697165   822 net.cpp:301] Memory required for data: 2132266376
I0603 04:24:33.697170   822 layer_factory.hpp:114] Creating layer inception_4e/3x3
I0603 04:24:33.697194   822 net.cpp:201] Creating Layer inception_4e/3x3
I0603 04:24:33.697201   822 net.cpp:902] inception_4e/3x3 <- inception_4e/3x3_reduce
I0603 04:24:33.697216   822 net.cpp:876] inception_4e/3x3 -> inception_4e/3x3
I0603 04:24:33.705121   822 net.cpp:286] Setting up inception_4e/3x3
I0603 04:24:33.705143   822 net.cpp:293] Top shape: 32 320 16 16 (2621440)
I0603 04:24:33.705149   822 net.cpp:301] Memory required for data: 2142752136
I0603 04:24:33.705160   822 layer_factory.hpp:114] Creating layer inception_4e/relu_3x3
I0603 04:24:33.705176   822 net.cpp:201] Creating Layer inception_4e/relu_3x3
I0603 04:24:33.705183   822 net.cpp:902] inception_4e/relu_3x3 <- inception_4e/3x3
I0603 04:24:33.705193   822 net.cpp:863] inception_4e/relu_3x3 -> inception_4e/3x3 (in-place)
I0603 04:24:33.705219   822 net.cpp:286] Setting up inception_4e/relu_3x3
I0603 04:24:33.705226   822 net.cpp:293] Top shape: 32 320 16 16 (2621440)
I0603 04:24:33.705231   822 net.cpp:301] Memory required for data: 2153237896
I0603 04:24:33.705236   822 layer_factory.hpp:114] Creating layer inception_4e/5x5_reduce
I0603 04:24:33.705256   822 net.cpp:201] Creating Layer inception_4e/5x5_reduce
I0603 04:24:33.705263   822 net.cpp:902] inception_4e/5x5_reduce <- inception_4d/output_inception_4d/output_0_split_3
I0603 04:24:33.705274   822 net.cpp:876] inception_4e/5x5_reduce -> inception_4e/5x5_reduce
I0603 04:24:33.707146   822 net.cpp:286] Setting up inception_4e/5x5_reduce
I0603 04:24:33.707168   822 net.cpp:293] Top shape: 32 32 16 16 (262144)
I0603 04:24:33.707175   822 net.cpp:301] Memory required for data: 2154286472
I0603 04:24:33.707185   822 layer_factory.hpp:114] Creating layer inception_4e/relu_5x5_reduce
I0603 04:24:33.707200   822 net.cpp:201] Creating Layer inception_4e/relu_5x5_reduce
I0603 04:24:33.707207   822 net.cpp:902] inception_4e/relu_5x5_reduce <- inception_4e/5x5_reduce
I0603 04:24:33.707216   822 net.cpp:863] inception_4e/relu_5x5_reduce -> inception_4e/5x5_reduce (in-place)
I0603 04:24:33.707237   822 net.cpp:286] Setting up inception_4e/relu_5x5_reduce
I0603 04:24:33.707244   822 net.cpp:293] Top shape: 32 32 16 16 (262144)
I0603 04:24:33.707249   822 net.cpp:301] Memory required for data: 2155335048
I0603 04:24:33.707254   822 layer_factory.hpp:114] Creating layer inception_4e/5x5
I0603 04:24:33.707276   822 net.cpp:201] Creating Layer inception_4e/5x5
I0603 04:24:33.707283   822 net.cpp:902] inception_4e/5x5 <- inception_4e/5x5_reduce
I0603 04:24:33.707293   822 net.cpp:876] inception_4e/5x5 -> inception_4e/5x5
I0603 04:24:33.710562   822 net.cpp:286] Setting up inception_4e/5x5
I0603 04:24:33.710583   822 net.cpp:293] Top shape: 32 128 16 16 (1048576)
I0603 04:24:33.710589   822 net.cpp:301] Memory required for data: 2159529352
I0603 04:24:33.710602   822 layer_factory.hpp:114] Creating layer inception_4e/relu_5x5
I0603 04:24:33.710616   822 net.cpp:201] Creating Layer inception_4e/relu_5x5
I0603 04:24:33.710624   822 net.cpp:902] inception_4e/relu_5x5 <- inception_4e/5x5
I0603 04:24:33.710633   822 net.cpp:863] inception_4e/relu_5x5 -> inception_4e/5x5 (in-place)
I0603 04:24:33.710654   822 net.cpp:286] Setting up inception_4e/relu_5x5
I0603 04:24:33.710661   822 net.cpp:293] Top shape: 32 128 16 16 (1048576)
I0603 04:24:33.710666   822 net.cpp:301] Memory required for data: 2163723656
I0603 04:24:33.710671   822 layer_factory.hpp:114] Creating layer inception_4e/pool
I0603 04:24:33.710683   822 net.cpp:201] Creating Layer inception_4e/pool
I0603 04:24:33.710706   822 net.cpp:902] inception_4e/pool <- inception_4d/output_inception_4d/output_0_split_4
I0603 04:24:33.710716   822 net.cpp:876] inception_4e/pool -> inception_4e/pool
I0603 04:24:33.710737   822 net.cpp:286] Setting up inception_4e/pool
I0603 04:24:33.710744   822 net.cpp:293] Top shape: 32 528 16 16 (4325376)
I0603 04:24:33.710749   822 net.cpp:301] Memory required for data: 2181025160
I0603 04:24:33.710754   822 layer_factory.hpp:114] Creating layer inception_4e/pool_proj
I0603 04:24:33.710772   822 net.cpp:201] Creating Layer inception_4e/pool_proj
I0603 04:24:33.710778   822 net.cpp:902] inception_4e/pool_proj <- inception_4e/pool
I0603 04:24:33.710786   822 net.cpp:876] inception_4e/pool_proj -> inception_4e/pool_proj
I0603 04:24:33.713425   822 net.cpp:286] Setting up inception_4e/pool_proj
I0603 04:24:33.713448   822 net.cpp:293] Top shape: 32 128 16 16 (1048576)
I0603 04:24:33.713454   822 net.cpp:301] Memory required for data: 2185219464
I0603 04:24:33.713464   822 layer_factory.hpp:114] Creating layer inception_4e/relu_pool_proj
I0603 04:24:33.713482   822 net.cpp:201] Creating Layer inception_4e/relu_pool_proj
I0603 04:24:33.713490   822 net.cpp:902] inception_4e/relu_pool_proj <- inception_4e/pool_proj
I0603 04:24:33.713500   822 net.cpp:863] inception_4e/relu_pool_proj -> inception_4e/pool_proj (in-place)
I0603 04:24:33.713526   822 net.cpp:286] Setting up inception_4e/relu_pool_proj
I0603 04:24:33.713533   822 net.cpp:293] Top shape: 32 128 16 16 (1048576)
I0603 04:24:33.713537   822 net.cpp:301] Memory required for data: 2189413768
I0603 04:24:33.713543   822 layer_factory.hpp:114] Creating layer inception_4e/output
I0603 04:24:33.713556   822 net.cpp:201] Creating Layer inception_4e/output
I0603 04:24:33.713562   822 net.cpp:902] inception_4e/output <- inception_4e/1x1
I0603 04:24:33.713569   822 net.cpp:902] inception_4e/output <- inception_4e/3x3
I0603 04:24:33.713575   822 net.cpp:902] inception_4e/output <- inception_4e/5x5
I0603 04:24:33.713582   822 net.cpp:902] inception_4e/output <- inception_4e/pool_proj
I0603 04:24:33.713591   822 net.cpp:876] inception_4e/output -> inception_4e/output
I0603 04:24:33.713636   822 net.cpp:286] Setting up inception_4e/output
I0603 04:24:33.713644   822 net.cpp:293] Top shape: 32 832 16 16 (6815744)
I0603 04:24:33.713649   822 net.cpp:301] Memory required for data: 2216676744
I0603 04:24:33.713655   822 layer_factory.hpp:114] Creating layer pool4/3x3_s2
I0603 04:24:33.713666   822 net.cpp:201] Creating Layer pool4/3x3_s2
I0603 04:24:33.713672   822 net.cpp:902] pool4/3x3_s2 <- inception_4e/output
I0603 04:24:33.713681   822 net.cpp:876] pool4/3x3_s2 -> pool4/3x3_s2
I0603 04:24:33.713699   822 net.cpp:286] Setting up pool4/3x3_s2
I0603 04:24:33.713706   822 net.cpp:293] Top shape: 32 832 8 8 (1703936)
I0603 04:24:33.713711   822 net.cpp:301] Memory required for data: 2223492488
I0603 04:24:33.713717   822 layer_factory.hpp:114] Creating layer pool4/3x3_s2_pool4/3x3_s2_0_split
I0603 04:24:33.713726   822 net.cpp:201] Creating Layer pool4/3x3_s2_pool4/3x3_s2_0_split
I0603 04:24:33.713732   822 net.cpp:902] pool4/3x3_s2_pool4/3x3_s2_0_split <- pool4/3x3_s2
I0603 04:24:33.713740   822 net.cpp:876] pool4/3x3_s2_pool4/3x3_s2_0_split -> pool4/3x3_s2_pool4/3x3_s2_0_split_0
I0603 04:24:33.713750   822 net.cpp:876] pool4/3x3_s2_pool4/3x3_s2_0_split -> pool4/3x3_s2_pool4/3x3_s2_0_split_1
I0603 04:24:33.713760   822 net.cpp:876] pool4/3x3_s2_pool4/3x3_s2_0_split -> pool4/3x3_s2_pool4/3x3_s2_0_split_2
I0603 04:24:33.713769   822 net.cpp:876] pool4/3x3_s2_pool4/3x3_s2_0_split -> pool4/3x3_s2_pool4/3x3_s2_0_split_3
I0603 04:24:33.713793   822 net.cpp:286] Setting up pool4/3x3_s2_pool4/3x3_s2_0_split
I0603 04:24:33.713800   822 net.cpp:293] Top shape: 32 832 8 8 (1703936)
I0603 04:24:33.713806   822 net.cpp:293] Top shape: 32 832 8 8 (1703936)
I0603 04:24:33.713814   822 net.cpp:293] Top shape: 32 832 8 8 (1703936)
I0603 04:24:33.713819   822 net.cpp:293] Top shape: 32 832 8 8 (1703936)
I0603 04:24:33.713824   822 net.cpp:301] Memory required for data: 2250755464
I0603 04:24:33.713845   822 layer_factory.hpp:114] Creating layer inception_5a/1x1
I0603 04:24:33.713862   822 net.cpp:201] Creating Layer inception_5a/1x1
I0603 04:24:33.713868   822 net.cpp:902] inception_5a/1x1 <- pool4/3x3_s2_pool4/3x3_s2_0_split_0
I0603 04:24:33.713877   822 net.cpp:876] inception_5a/1x1 -> inception_5a/1x1
I0603 04:24:33.718878   822 net.cpp:286] Setting up inception_5a/1x1
I0603 04:24:33.718899   822 net.cpp:293] Top shape: 32 256 8 8 (524288)
I0603 04:24:33.718905   822 net.cpp:301] Memory required for data: 2252852616
I0603 04:24:33.718916   822 layer_factory.hpp:114] Creating layer inception_5a/relu_1x1
I0603 04:24:33.718931   822 net.cpp:201] Creating Layer inception_5a/relu_1x1
I0603 04:24:33.718938   822 net.cpp:902] inception_5a/relu_1x1 <- inception_5a/1x1
I0603 04:24:33.718950   822 net.cpp:863] inception_5a/relu_1x1 -> inception_5a/1x1 (in-place)
I0603 04:24:33.718976   822 net.cpp:286] Setting up inception_5a/relu_1x1
I0603 04:24:33.718984   822 net.cpp:293] Top shape: 32 256 8 8 (524288)
I0603 04:24:33.718989   822 net.cpp:301] Memory required for data: 2254949768
I0603 04:24:33.718996   822 layer_factory.hpp:114] Creating layer inception_5a/3x3_reduce
I0603 04:24:33.719022   822 net.cpp:201] Creating Layer inception_5a/3x3_reduce
I0603 04:24:33.719028   822 net.cpp:902] inception_5a/3x3_reduce <- pool4/3x3_s2_pool4/3x3_s2_0_split_1
I0603 04:24:33.719039   822 net.cpp:876] inception_5a/3x3_reduce -> inception_5a/3x3_reduce
I0603 04:24:33.721935   822 net.cpp:286] Setting up inception_5a/3x3_reduce
I0603 04:24:33.721956   822 net.cpp:293] Top shape: 32 160 8 8 (327680)
I0603 04:24:33.721962   822 net.cpp:301] Memory required for data: 2256260488
I0603 04:24:33.721974   822 layer_factory.hpp:114] Creating layer inception_5a/relu_3x3_reduce
I0603 04:24:33.721988   822 net.cpp:201] Creating Layer inception_5a/relu_3x3_reduce
I0603 04:24:33.721997   822 net.cpp:902] inception_5a/relu_3x3_reduce <- inception_5a/3x3_reduce
I0603 04:24:33.722005   822 net.cpp:863] inception_5a/relu_3x3_reduce -> inception_5a/3x3_reduce (in-place)
I0603 04:24:33.722025   822 net.cpp:286] Setting up inception_5a/relu_3x3_reduce
I0603 04:24:33.722033   822 net.cpp:293] Top shape: 32 160 8 8 (327680)
I0603 04:24:33.722038   822 net.cpp:301] Memory required for data: 2257571208
I0603 04:24:33.722044   822 layer_factory.hpp:114] Creating layer inception_5a/3x3
I0603 04:24:33.722064   822 net.cpp:201] Creating Layer inception_5a/3x3
I0603 04:24:33.722069   822 net.cpp:902] inception_5a/3x3 <- inception_5a/3x3_reduce
I0603 04:24:33.722077   822 net.cpp:876] inception_5a/3x3 -> inception_5a/3x3
I0603 04:24:33.728528   822 net.cpp:286] Setting up inception_5a/3x3
I0603 04:24:33.728550   822 net.cpp:293] Top shape: 32 320 8 8 (655360)
I0603 04:24:33.728556   822 net.cpp:301] Memory required for data: 2260192648
I0603 04:24:33.728567   822 layer_factory.hpp:114] Creating layer inception_5a/relu_3x3
I0603 04:24:33.728582   822 net.cpp:201] Creating Layer inception_5a/relu_3x3
I0603 04:24:33.728590   822 net.cpp:902] inception_5a/relu_3x3 <- inception_5a/3x3
I0603 04:24:33.728598   822 net.cpp:863] inception_5a/relu_3x3 -> inception_5a/3x3 (in-place)
I0603 04:24:33.728619   822 net.cpp:286] Setting up inception_5a/relu_3x3
I0603 04:24:33.728627   822 net.cpp:293] Top shape: 32 320 8 8 (655360)
I0603 04:24:33.728632   822 net.cpp:301] Memory required for data: 2262814088
I0603 04:24:33.728638   822 layer_factory.hpp:114] Creating layer inception_5a/5x5_reduce
I0603 04:24:33.728655   822 net.cpp:201] Creating Layer inception_5a/5x5_reduce
I0603 04:24:33.728662   822 net.cpp:902] inception_5a/5x5_reduce <- pool4/3x3_s2_pool4/3x3_s2_0_split_2
I0603 04:24:33.728672   822 net.cpp:876] inception_5a/5x5_reduce -> inception_5a/5x5_reduce
I0603 04:24:33.730232   822 net.cpp:286] Setting up inception_5a/5x5_reduce
I0603 04:24:33.730253   822 net.cpp:293] Top shape: 32 32 8 8 (65536)
I0603 04:24:33.730259   822 net.cpp:301] Memory required for data: 2263076232
I0603 04:24:33.730286   822 layer_factory.hpp:114] Creating layer inception_5a/relu_5x5_reduce
I0603 04:24:33.730319   822 net.cpp:201] Creating Layer inception_5a/relu_5x5_reduce
I0603 04:24:33.730326   822 net.cpp:902] inception_5a/relu_5x5_reduce <- inception_5a/5x5_reduce
I0603 04:24:33.730334   822 net.cpp:863] inception_5a/relu_5x5_reduce -> inception_5a/5x5_reduce (in-place)
I0603 04:24:33.730355   822 net.cpp:286] Setting up inception_5a/relu_5x5_reduce
I0603 04:24:33.730362   822 net.cpp:293] Top shape: 32 32 8 8 (65536)
I0603 04:24:33.730367   822 net.cpp:301] Memory required for data: 2263338376
I0603 04:24:33.730372   822 layer_factory.hpp:114] Creating layer inception_5a/5x5
I0603 04:24:33.730391   822 net.cpp:201] Creating Layer inception_5a/5x5
I0603 04:24:33.730397   822 net.cpp:902] inception_5a/5x5 <- inception_5a/5x5_reduce
I0603 04:24:33.730406   822 net.cpp:876] inception_5a/5x5 -> inception_5a/5x5
I0603 04:24:33.732755   822 net.cpp:286] Setting up inception_5a/5x5
I0603 04:24:33.732776   822 net.cpp:293] Top shape: 32 128 8 8 (262144)
I0603 04:24:33.732782   822 net.cpp:301] Memory required for data: 2264386952
I0603 04:24:33.732795   822 layer_factory.hpp:114] Creating layer inception_5a/relu_5x5
I0603 04:24:33.732808   822 net.cpp:201] Creating Layer inception_5a/relu_5x5
I0603 04:24:33.732815   822 net.cpp:902] inception_5a/relu_5x5 <- inception_5a/5x5
I0603 04:24:33.732828   822 net.cpp:863] inception_5a/relu_5x5 -> inception_5a/5x5 (in-place)
I0603 04:24:33.732854   822 net.cpp:286] Setting up inception_5a/relu_5x5
I0603 04:24:33.732861   822 net.cpp:293] Top shape: 32 128 8 8 (262144)
I0603 04:24:33.732867   822 net.cpp:301] Memory required for data: 2265435528
I0603 04:24:33.732872   822 layer_factory.hpp:114] Creating layer inception_5a/pool
I0603 04:24:33.732885   822 net.cpp:201] Creating Layer inception_5a/pool
I0603 04:24:33.732892   822 net.cpp:902] inception_5a/pool <- pool4/3x3_s2_pool4/3x3_s2_0_split_3
I0603 04:24:33.732903   822 net.cpp:876] inception_5a/pool -> inception_5a/pool
I0603 04:24:33.732925   822 net.cpp:286] Setting up inception_5a/pool
I0603 04:24:33.732933   822 net.cpp:293] Top shape: 32 832 8 8 (1703936)
I0603 04:24:33.732938   822 net.cpp:301] Memory required for data: 2272251272
I0603 04:24:33.732942   822 layer_factory.hpp:114] Creating layer inception_5a/pool_proj
I0603 04:24:33.732965   822 net.cpp:201] Creating Layer inception_5a/pool_proj
I0603 04:24:33.732971   822 net.cpp:902] inception_5a/pool_proj <- inception_5a/pool
I0603 04:24:33.732980   822 net.cpp:876] inception_5a/pool_proj -> inception_5a/pool_proj
I0603 04:24:33.735815   822 net.cpp:286] Setting up inception_5a/pool_proj
I0603 04:24:33.735837   822 net.cpp:293] Top shape: 32 128 8 8 (262144)
I0603 04:24:33.735843   822 net.cpp:301] Memory required for data: 2273299848
I0603 04:24:33.735855   822 layer_factory.hpp:114] Creating layer inception_5a/relu_pool_proj
I0603 04:24:33.735874   822 net.cpp:201] Creating Layer inception_5a/relu_pool_proj
I0603 04:24:33.735882   822 net.cpp:902] inception_5a/relu_pool_proj <- inception_5a/pool_proj
I0603 04:24:33.735890   822 net.cpp:863] inception_5a/relu_pool_proj -> inception_5a/pool_proj (in-place)
I0603 04:24:33.735916   822 net.cpp:286] Setting up inception_5a/relu_pool_proj
I0603 04:24:33.735924   822 net.cpp:293] Top shape: 32 128 8 8 (262144)
I0603 04:24:33.735929   822 net.cpp:301] Memory required for data: 2274348424
I0603 04:24:33.735934   822 layer_factory.hpp:114] Creating layer inception_5a/output
I0603 04:24:33.735945   822 net.cpp:201] Creating Layer inception_5a/output
I0603 04:24:33.735951   822 net.cpp:902] inception_5a/output <- inception_5a/1x1
I0603 04:24:33.735958   822 net.cpp:902] inception_5a/output <- inception_5a/3x3
I0603 04:24:33.735965   822 net.cpp:902] inception_5a/output <- inception_5a/5x5
I0603 04:24:33.735970   822 net.cpp:902] inception_5a/output <- inception_5a/pool_proj
I0603 04:24:33.735980   822 net.cpp:876] inception_5a/output -> inception_5a/output
I0603 04:24:33.736027   822 net.cpp:286] Setting up inception_5a/output
I0603 04:24:33.736035   822 net.cpp:293] Top shape: 32 832 8 8 (1703936)
I0603 04:24:33.736055   822 net.cpp:301] Memory required for data: 2281164168
I0603 04:24:33.736062   822 layer_factory.hpp:114] Creating layer inception_5a/output_inception_5a/output_0_split
I0603 04:24:33.736074   822 net.cpp:201] Creating Layer inception_5a/output_inception_5a/output_0_split
I0603 04:24:33.736080   822 net.cpp:902] inception_5a/output_inception_5a/output_0_split <- inception_5a/output
I0603 04:24:33.736088   822 net.cpp:876] inception_5a/output_inception_5a/output_0_split -> inception_5a/output_inception_5a/output_0_split_0
I0603 04:24:33.736099   822 net.cpp:876] inception_5a/output_inception_5a/output_0_split -> inception_5a/output_inception_5a/output_0_split_1
I0603 04:24:33.736107   822 net.cpp:876] inception_5a/output_inception_5a/output_0_split -> inception_5a/output_inception_5a/output_0_split_2
I0603 04:24:33.736115   822 net.cpp:876] inception_5a/output_inception_5a/output_0_split -> inception_5a/output_inception_5a/output_0_split_3
I0603 04:24:33.736142   822 net.cpp:286] Setting up inception_5a/output_inception_5a/output_0_split
I0603 04:24:33.736151   822 net.cpp:293] Top shape: 32 832 8 8 (1703936)
I0603 04:24:33.736158   822 net.cpp:293] Top shape: 32 832 8 8 (1703936)
I0603 04:24:33.736165   822 net.cpp:293] Top shape: 32 832 8 8 (1703936)
I0603 04:24:33.736171   822 net.cpp:293] Top shape: 32 832 8 8 (1703936)
I0603 04:24:33.736176   822 net.cpp:301] Memory required for data: 2308427144
I0603 04:24:33.736181   822 layer_factory.hpp:114] Creating layer inception_5b/1x1
I0603 04:24:33.736204   822 net.cpp:201] Creating Layer inception_5b/1x1
I0603 04:24:33.736210   822 net.cpp:902] inception_5b/1x1 <- inception_5a/output_inception_5a/output_0_split_0
I0603 04:24:33.736222   822 net.cpp:876] inception_5b/1x1 -> inception_5b/1x1
I0603 04:24:33.742866   822 net.cpp:286] Setting up inception_5b/1x1
I0603 04:24:33.742887   822 net.cpp:293] Top shape: 32 384 8 8 (786432)
I0603 04:24:33.742893   822 net.cpp:301] Memory required for data: 2311572872
I0603 04:24:33.742905   822 layer_factory.hpp:114] Creating layer inception_5b/relu_1x1
I0603 04:24:33.742924   822 net.cpp:201] Creating Layer inception_5b/relu_1x1
I0603 04:24:33.742931   822 net.cpp:902] inception_5b/relu_1x1 <- inception_5b/1x1
I0603 04:24:33.742940   822 net.cpp:863] inception_5b/relu_1x1 -> inception_5b/1x1 (in-place)
I0603 04:24:33.742967   822 net.cpp:286] Setting up inception_5b/relu_1x1
I0603 04:24:33.742975   822 net.cpp:293] Top shape: 32 384 8 8 (786432)
I0603 04:24:33.742980   822 net.cpp:301] Memory required for data: 2314718600
I0603 04:24:33.742986   822 layer_factory.hpp:114] Creating layer inception_5b/3x3_reduce
I0603 04:24:33.743008   822 net.cpp:201] Creating Layer inception_5b/3x3_reduce
I0603 04:24:33.743016   822 net.cpp:902] inception_5b/3x3_reduce <- inception_5a/output_inception_5a/output_0_split_1
I0603 04:24:33.743026   822 net.cpp:876] inception_5b/3x3_reduce -> inception_5b/3x3_reduce
I0603 04:24:33.746134   822 net.cpp:286] Setting up inception_5b/3x3_reduce
I0603 04:24:33.746165   822 net.cpp:293] Top shape: 32 192 8 8 (393216)
I0603 04:24:33.746173   822 net.cpp:301] Memory required for data: 2316291464
I0603 04:24:33.746186   822 layer_factory.hpp:114] Creating layer inception_5b/relu_3x3_reduce
I0603 04:24:33.746202   822 net.cpp:201] Creating Layer inception_5b/relu_3x3_reduce
I0603 04:24:33.746209   822 net.cpp:902] inception_5b/relu_3x3_reduce <- inception_5b/3x3_reduce
I0603 04:24:33.746218   822 net.cpp:863] inception_5b/relu_3x3_reduce -> inception_5b/3x3_reduce (in-place)
I0603 04:24:33.746242   822 net.cpp:286] Setting up inception_5b/relu_3x3_reduce
I0603 04:24:33.746249   822 net.cpp:293] Top shape: 32 192 8 8 (393216)
I0603 04:24:33.746254   822 net.cpp:301] Memory required for data: 2317864328
I0603 04:24:33.746260   822 layer_factory.hpp:114] Creating layer inception_5b/3x3
I0603 04:24:33.746307   822 net.cpp:201] Creating Layer inception_5b/3x3
I0603 04:24:33.746315   822 net.cpp:902] inception_5b/3x3 <- inception_5b/3x3_reduce
I0603 04:24:33.746342   822 net.cpp:876] inception_5b/3x3 -> inception_5b/3x3
I0603 04:24:33.755676   822 net.cpp:286] Setting up inception_5b/3x3
I0603 04:24:33.755699   822 net.cpp:293] Top shape: 32 384 8 8 (786432)
I0603 04:24:33.755705   822 net.cpp:301] Memory required for data: 2321010056
I0603 04:24:33.755717   822 layer_factory.hpp:114] Creating layer inception_5b/relu_3x3
I0603 04:24:33.755738   822 net.cpp:201] Creating Layer inception_5b/relu_3x3
I0603 04:24:33.755746   822 net.cpp:902] inception_5b/relu_3x3 <- inception_5b/3x3
I0603 04:24:33.755754   822 net.cpp:863] inception_5b/relu_3x3 -> inception_5b/3x3 (in-place)
I0603 04:24:33.755781   822 net.cpp:286] Setting up inception_5b/relu_3x3
I0603 04:24:33.755789   822 net.cpp:293] Top shape: 32 384 8 8 (786432)
I0603 04:24:33.755794   822 net.cpp:301] Memory required for data: 2324155784
I0603 04:24:33.755800   822 layer_factory.hpp:114] Creating layer inception_5b/5x5_reduce
I0603 04:24:33.755821   822 net.cpp:201] Creating Layer inception_5b/5x5_reduce
I0603 04:24:33.755828   822 net.cpp:902] inception_5b/5x5_reduce <- inception_5a/output_inception_5a/output_0_split_2
I0603 04:24:33.755839   822 net.cpp:876] inception_5b/5x5_reduce -> inception_5b/5x5_reduce
I0603 04:24:33.757767   822 net.cpp:286] Setting up inception_5b/5x5_reduce
I0603 04:24:33.757791   822 net.cpp:293] Top shape: 32 48 8 8 (98304)
I0603 04:24:33.757797   822 net.cpp:301] Memory required for data: 2324549000
I0603 04:24:33.757809   822 layer_factory.hpp:114] Creating layer inception_5b/relu_5x5_reduce
I0603 04:24:33.757823   822 net.cpp:201] Creating Layer inception_5b/relu_5x5_reduce
I0603 04:24:33.757832   822 net.cpp:902] inception_5b/relu_5x5_reduce <- inception_5b/5x5_reduce
I0603 04:24:33.757843   822 net.cpp:863] inception_5b/relu_5x5_reduce -> inception_5b/5x5_reduce (in-place)
I0603 04:24:33.757869   822 net.cpp:286] Setting up inception_5b/relu_5x5_reduce
I0603 04:24:33.757876   822 net.cpp:293] Top shape: 32 48 8 8 (98304)
I0603 04:24:33.757881   822 net.cpp:301] Memory required for data: 2324942216
I0603 04:24:33.757886   822 layer_factory.hpp:114] Creating layer inception_5b/5x5
I0603 04:24:33.757910   822 net.cpp:201] Creating Layer inception_5b/5x5
I0603 04:24:33.757916   822 net.cpp:902] inception_5b/5x5 <- inception_5b/5x5_reduce
I0603 04:24:33.757927   822 net.cpp:876] inception_5b/5x5 -> inception_5b/5x5
I0603 04:24:33.760993   822 net.cpp:286] Setting up inception_5b/5x5
I0603 04:24:33.761014   822 net.cpp:293] Top shape: 32 128 8 8 (262144)
I0603 04:24:33.761021   822 net.cpp:301] Memory required for data: 2325990792
I0603 04:24:33.761032   822 layer_factory.hpp:114] Creating layer inception_5b/relu_5x5
I0603 04:24:33.761054   822 net.cpp:201] Creating Layer inception_5b/relu_5x5
I0603 04:24:33.761062   822 net.cpp:902] inception_5b/relu_5x5 <- inception_5b/5x5
I0603 04:24:33.761070   822 net.cpp:863] inception_5b/relu_5x5 -> inception_5b/5x5 (in-place)
I0603 04:24:33.761097   822 net.cpp:286] Setting up inception_5b/relu_5x5
I0603 04:24:33.761106   822 net.cpp:293] Top shape: 32 128 8 8 (262144)
I0603 04:24:33.761111   822 net.cpp:301] Memory required for data: 2327039368
I0603 04:24:33.761116   822 layer_factory.hpp:114] Creating layer inception_5b/pool
I0603 04:24:33.761129   822 net.cpp:201] Creating Layer inception_5b/pool
I0603 04:24:33.761137   822 net.cpp:902] inception_5b/pool <- inception_5a/output_inception_5a/output_0_split_3
I0603 04:24:33.761145   822 net.cpp:876] inception_5b/pool -> inception_5b/pool
I0603 04:24:33.761168   822 net.cpp:286] Setting up inception_5b/pool
I0603 04:24:33.761178   822 net.cpp:293] Top shape: 32 832 8 8 (1703936)
I0603 04:24:33.761183   822 net.cpp:301] Memory required for data: 2333855112
I0603 04:24:33.761188   822 layer_factory.hpp:114] Creating layer inception_5b/pool_proj
I0603 04:24:33.761209   822 net.cpp:201] Creating Layer inception_5b/pool_proj
I0603 04:24:33.761215   822 net.cpp:902] inception_5b/pool_proj <- inception_5b/pool
I0603 04:24:33.761226   822 net.cpp:876] inception_5b/pool_proj -> inception_5b/pool_proj
I0603 04:24:33.764055   822 net.cpp:286] Setting up inception_5b/pool_proj
I0603 04:24:33.764081   822 net.cpp:293] Top shape: 32 128 8 8 (262144)
I0603 04:24:33.764086   822 net.cpp:301] Memory required for data: 2334903688
I0603 04:24:33.764098   822 layer_factory.hpp:114] Creating layer inception_5b/relu_pool_proj
I0603 04:24:33.764112   822 net.cpp:201] Creating Layer inception_5b/relu_pool_proj
I0603 04:24:33.764120   822 net.cpp:902] inception_5b/relu_pool_proj <- inception_5b/pool_proj
I0603 04:24:33.764132   822 net.cpp:863] inception_5b/relu_pool_proj -> inception_5b/pool_proj (in-place)
I0603 04:24:33.764161   822 net.cpp:286] Setting up inception_5b/relu_pool_proj
I0603 04:24:33.764169   822 net.cpp:293] Top shape: 32 128 8 8 (262144)
I0603 04:24:33.764174   822 net.cpp:301] Memory required for data: 2335952264
I0603 04:24:33.764179   822 layer_factory.hpp:114] Creating layer inception_5b/output
I0603 04:24:33.764190   822 net.cpp:201] Creating Layer inception_5b/output
I0603 04:24:33.764196   822 net.cpp:902] inception_5b/output <- inception_5b/1x1
I0603 04:24:33.764204   822 net.cpp:902] inception_5b/output <- inception_5b/3x3
I0603 04:24:33.764209   822 net.cpp:902] inception_5b/output <- inception_5b/5x5
I0603 04:24:33.764215   822 net.cpp:902] inception_5b/output <- inception_5b/pool_proj
I0603 04:24:33.764225   822 net.cpp:876] inception_5b/output -> inception_5b/output
I0603 04:24:33.764272   822 net.cpp:286] Setting up inception_5b/output
I0603 04:24:33.764281   822 net.cpp:293] Top shape: 32 1024 8 8 (2097152)
I0603 04:24:33.764286   822 net.cpp:301] Memory required for data: 2344340872
I0603 04:24:33.764292   822 layer_factory.hpp:114] Creating layer pool5/7x7_s1
I0603 04:24:33.764303   822 net.cpp:201] Creating Layer pool5/7x7_s1
I0603 04:24:33.764309   822 net.cpp:902] pool5/7x7_s1 <- inception_5b/output
I0603 04:24:33.764319   822 net.cpp:876] pool5/7x7_s1 -> pool5/7x7_s1
I0603 04:24:33.764341   822 net.cpp:286] Setting up pool5/7x7_s1
I0603 04:24:33.764348   822 net.cpp:293] Top shape: 32 1024 2 2 (131072)
I0603 04:24:33.764353   822 net.cpp:301] Memory required for data: 2344865160
I0603 04:24:33.764358   822 layer_factory.hpp:114] Creating layer pool5/drop_7x7_s1
I0603 04:24:33.764370   822 net.cpp:201] Creating Layer pool5/drop_7x7_s1
I0603 04:24:33.764377   822 net.cpp:902] pool5/drop_7x7_s1 <- pool5/7x7_s1
I0603 04:24:33.764385   822 net.cpp:863] pool5/drop_7x7_s1 -> pool5/7x7_s1 (in-place)
I0603 04:24:33.764402   822 net.cpp:286] Setting up pool5/drop_7x7_s1
I0603 04:24:33.764410   822 net.cpp:293] Top shape: 32 1024 2 2 (131072)
I0603 04:24:33.764415   822 net.cpp:301] Memory required for data: 2345389448
I0603 04:24:33.764420   822 layer_factory.hpp:114] Creating layer loss3/classifier
I0603 04:24:33.764436   822 net.cpp:201] Creating Layer loss3/classifier
I0603 04:24:33.764441   822 net.cpp:902] loss3/classifier <- pool5/7x7_s1
I0603 04:24:33.764451   822 net.cpp:876] loss3/classifier -> loss3/classifier
I0603 04:24:33.764619   822 net.cpp:286] Setting up loss3/classifier
I0603 04:24:33.764628   822 net.cpp:293] Top shape: 32 3 (96)
I0603 04:24:33.764633   822 net.cpp:301] Memory required for data: 2345389832
I0603 04:24:33.764642   822 layer_factory.hpp:114] Creating layer loss3/classifier_loss3/classifier_0_split
I0603 04:24:33.764654   822 net.cpp:201] Creating Layer loss3/classifier_loss3/classifier_0_split
I0603 04:24:33.764660   822 net.cpp:902] loss3/classifier_loss3/classifier_0_split <- loss3/classifier
I0603 04:24:33.764669   822 net.cpp:876] loss3/classifier_loss3/classifier_0_split -> loss3/classifier_loss3/classifier_0_split_0
I0603 04:24:33.764678   822 net.cpp:876] loss3/classifier_loss3/classifier_0_split -> loss3/classifier_loss3/classifier_0_split_1
I0603 04:24:33.764700   822 net.cpp:286] Setting up loss3/classifier_loss3/classifier_0_split
I0603 04:24:33.764708   822 net.cpp:293] Top shape: 32 3 (96)
I0603 04:24:33.764714   822 net.cpp:293] Top shape: 32 3 (96)
I0603 04:24:33.764719   822 net.cpp:301] Memory required for data: 2345390600
I0603 04:24:33.764722   822 layer_factory.hpp:114] Creating layer loss3/loss
I0603 04:24:33.764751   822 net.cpp:201] Creating Layer loss3/loss
I0603 04:24:33.764758   822 net.cpp:902] loss3/loss <- loss3/classifier_loss3/classifier_0_split_0
I0603 04:24:33.764765   822 net.cpp:902] loss3/loss <- label_DataColor256_1_split_2
…
